model.pt (torch, 158541 bytes, 118 tensors)

token_embedding_table.weight f4 [100, 16]
000000 c0 af 99 be a0 cc 59 3f 7b a0 8f 3e 01 21 4d bf
       -0.300169 0.8507786 0.28052124 -0.80128485
000010 ae f5 3a 3f 23 c6 34 bf b1 ce 57 3d f2 56 47 bf
       0.7303113 -0.7061483 0.05268735 -0.77867043
000020 c4 b1 1c bf ba 8d 15 be 50 66 18 3f c8 ff d8 bf
       -0.6120875 -0.14604846 0.59531116 -1.6953058
000030 b3 90 68 bf 13 d8 8e bf 28 ef 39 3f 9e 43 70 bf
       -0.90845793 -1.1159691 0.7263055 -0.93853176
000040 1c 95 25 bc 8c d5 1e 40 bb 9f a2 bf c1 91 a8 3f
       -0.010106351 2.4817839 -1.2704996 1.316948
000050 d5 86 e0 3e bb d4 ad 3f 46 ba 64 bf 6b 91 8c 3f
       0.4385287 1.3580545 -0.8934673 1.0981878
000060 ca 0f 67 be c1 eb a0 bf 00 0c 5a 3e 70 77 11 3f
       -0.22564617 -1.2571946 0.2129364 0.5682287
000070 15 07 91 bf fe 4e 38 be b9 eb 0e 40 dc 56 76 be
       -1.1330286 -0.17998883 2.2331374 -0.24056572
000080 a5 80 78 3e 0f 7b 37 bf 6d 53 d1 3d 74 40 1b 3f
       0.24267824 -0.7167215 0.1022099 0.6064522
000090 da f8 6c be 86 70 1b 40 30 9f 0e bf 3f 0e e2 3d
       -0.23141804 2.428743 -0.5571165 0.110378735
0000a0 0a 7c 56 bf 8e e3 9e bf 90 b2 40 3f 34 38 12 40
       -0.8378302 -1.2413194 0.75272465 2.2846804
0000b0 de 1e 4c bf 14 a3 de 3f 8a 4a 81 bf 7d 99 10 40
       -0.797346 1.7393517 -1.0100873 2.2593682
0000c0 1c e5 a5 bf 0d 6c 59 bf 2f a5 82 bf d5 99 df 3e
       -1.2960544 -0.849305 -1.020666 0.43672052
0000d0 13 da 4d 3f 12 ac f5 be 66 ac 45 c0 88 69 f6 bf
       0.8041088 -0.47982842 -3.0886474 -1.9250956
0000e0 c2 0c 38 3e 69 8b 85 be b3 a1 cd bf b2 6b a1 3f
       0.17973617 -0.26082924 -1.6064972 1.2610991
0000f0 18 36 64 3e 0f 2b 3b 3f 28 44 f5 3d 84 76 ae 3e
       0.2228626 0.7311258 0.119758904 0.34074795
000100 99 ce ad 3f bf 29 0d 3d 94 32 d4 3f aa ff 96 bf
       1.3578674 0.03446364 1.6577935 -1.1796772
000110 3a 47 28 bf c2 34 c5 3f 84 7b d4 3e 51 9e 8d 3f
       -0.65733683 1.5406725 0.41500485 1.1063939
000120 bb 35 ea be 75 da 26 bf eb 7d 15 bf 5b c1 33 bf
       -0.45744118 -0.6517709 -0.5839526 -0.7021691
000130 5e b4 6d 3f 2b e6 b9 bf 63 85 35 3f 55 56 54 3d
       0.92853343 -1.4523367 0.70906657 0.051840145
000140 4d c3 8e bf 25 5f 03 40 b4 5c 8a be af e2 0c be
       -1.1153351 2.0526822 -0.27023852 -0.13758348
000150 04 e6 0a bf 99 9a a3 3f 09 b9 c2 3f 48 98 6b be
       -0.54257226 1.2781554 1.5212718 -0.2300731
000160 62 cf e4 be b3 3c 2f 40 dc 1a fd be 40 7e 7d bf
       -0.4468947 2.7380798 -0.49434555 -0.9902077
000170 59 d1 9d 3d 25 bd df be fc c3 36 bf c5 21 e5 3f
       0.077059455 -0.43698993 -0.713928 1.7900931
000180 d0 af a0 3e e7 84 d6 3e 5b e6 11 c0 4d 13 09 bf
       0.31384134 0.4189827 -2.2796848 -0.53545076
000190 78 93 67 3f 6a 5c d1 bf 04 cf ef 3e ab 60 1d 3f
       0.90459394 -1.6356328 0.46837628 0.6147563
0001a0 d3 8d 18 bf 3e 96 82 3c 58 05 a5 bf 02 97 2b 3e
       -0.59591407 0.015940782 -1.2892256 0.16756824
0001b0 61 3b 83 be 91 4f 4c be c3 b4 5f 3f f3 ec b3 be
       -0.2563124 -0.19952227 0.87385195 -0.35141715
0001c0 49 c3 f1 be e8 de 82 3f 48 ac ad 3e ee 81 8b be
       -0.47219303 1.0224276 0.33920503 -0.27247566
0001d0 f5 9e b3 3e 38 1f 62 3f 95 ca c8 3f 4d d0 38 3f
       0.35082212 0.88328886 1.5686823 0.7219284
0001e0 d0 8b 23 3f 24 7a 28 be ef 71 9e bd 15 f4 ea 3f
       0.6388521 -0.16452843 -0.07736575 1.8355738
0001f0 0e 64 48 bf bf f3 ef 3d 8f 20 a5 be 9f b1 df 3f
       -0.7827767 0.11716413 -0.32251403 1.7476081
000200 62 01 7f bf 54 55 57 3e 52 ed 36 3f 37 98 21 c0
       -0.99611485 0.21028644 0.7145587 -2.5249155
000210 6f 9f 99 3f 67 0e b7 3f 20 bf 25 3e e1 f4 9f bf
       1.200178 1.430127 0.1618619 -1.2496606
000220 b2 bf f8 bf 94 be c0 bf 34 ca 51 3f d1 8d bb be
       -1.9433501 -1.505816 0.8194916 -0.36631635
000230 6b f7 12 40 df f3 d4 be 6e 58 a1 3e 84 fb a0 3e
       2.2963512 -0.4159231 0.3151278 0.3144189
000240 8f 58 92 bf 6e 0f 51 bf 44 a2 f6 be 41 0d c7 3f
       -1.1433276 -0.8166417 -0.48170674 1.555092
000250 a7 8a b1 be 8d b9 bf 3e 04 67 9b bf f7 db 32 bf
       -0.34676096 0.37446252 -1.2140813 -0.6986689
000260 5b 05 68 3e 9d d7 2d bd d5 53 d1 3d 53 dd 19 bc
       0.22658293 -0.042441953 0.10221068 -0.009391147
000270 79 6b 8b 3f cb a4 0b be bc 5a 1b bf ca ea de 3e
       1.0892173 -0.13637082 -0.60685325 0.43538505
000280 30 ca b9 bf 47 e2 de 3e be 6b 0a bf 6d 5f 9f bf
       -1.4514828 0.4353201 -0.5407065 -1.2450997
000290 2f b5 74 3e bb 4f ab bd 97 08 0a bf 93 04 34 3f
       0.23897241 -0.08364817 -0.5391936 0.7031948
0002a0 a7 91 a8 3f 0e 48 32 3f 5e fe 4a bf 1d 5a 2c bc
       1.316945 0.69641197 -0.79294384 -0.010519532
0002b0 a6 3d 83 3c cb b0 23 be 55 f4 76 3e a6 ac da 3f
       0.016020607 -0.1598541 0.24116643 1.7083938
0002c0 2d 0e f6 be e3 f5 04 3d 68 a4 d0 3f 1a 2a 9f 3c
       -0.4805769 0.03246106 1.6300173 0.019429255
0002d0 f1 a2 65 bd ad 1e f4 bf 51 3f 4c 3f 37 d0 be 3e
       -0.056063596 -1.9071862 0.79784113 0.3726823
0002e0 09 85 ca be 8e aa e2 3d 31 ea 4e bf 8e e5 de 3e
       -0.39554623 0.11067687 -0.808261 0.4353451
0002f0 d5 a3 aa 3e 57 ad 03 bf 01 78 dd 3f a9 48 e3 bd
       0.3332812 -0.5143637 1.7302247 -0.11097843
000300 ae 91 70 3e ae aa ed be a3 8c 34 3f 31 ff c3 3e
       0.23493072 -0.4641928 0.70527095 0.38280633
000310 0d 9b 0b c0 c3 07 06 bf 5e 97 88 3e f0 75 db bf
       -2.1813385 -0.52355593 0.26677984 -1.7145367
000320 09 19 7b bf c7 09 49 be 43 51 dc 3f ae 96 db bf
       -0.98085076 -0.19632636 1.7212299 -1.7155359
000330 c3 cd 65 3e 1b 1b b2 be 84 50 0c 3f 7e a8 ef bd
       0.22441773 -0.34786305 0.5481036 -0.11702059
000340 b3 2e cc be 0a 03 2d bf 93 44 bb be b6 b0 7c 3d
       -0.3987938 -0.6758276 -0.36575755 0.061691962
000350 de 0c 08 3f a8 a7 3f 3f 5e a0 b1 3f bb e3 da bf
       0.53144634 0.748652 1.3877065 -1.7100748
000360 93 a2 6d bf 99 d2 53 3f 5d 09 2d 3f 55 e2 35 bf
       -0.92826194 0.8274322 0.6759241 -0.7104848
000370 db 22 c2 3f be c5 ca 3e a9 3f 42 bf cf d2 98 3f
       1.5166887 0.3960399 -0.7587839 1.1939334
000380 bd ec c9 3f ab 14 59 bf c0 e1 10 3f d8 8a 64 3f
       1.5775372 -0.8479716 0.5659447 0.8927436
000390 b6 f5 cb bf a2 dd be 3e 0e 9e 56 3f 10 d0 9b 3e
       -1.593436 0.37278467 0.8383492 0.30432177
0003a0 ac 1d 8f bf f4 8f 3d 3f fa 36 7e bf 33 ae 27 3f
       -1.118093 0.7404778 -0.9930264 0.6550018
0003b0 cb 8e c6 3e 0c 20 e2 3f 75 bc 30 bf 76 38 01 3c
       0.38780817 1.766603 -0.6903756 0.0078869965
0003c0 71 56 64 bf 03 c3 59 3c 47 13 e0 bf f7 aa 6e 3e
       -0.891944 0.013291123 -1.7505883 0.23307405
0003d0 8e 96 2a 3f f8 12 8f 3f 3a 9b 15 bd 79 e3 af be
       0.6663598 1.1177664 -0.03652499 -0.34353235
0003e0 6c 87 d6 3f c2 6a 0f 3f f2 46 8b bf a4 7a 3f 3e
       1.6760077 0.56022274 -1.0881026 0.18699127
0003f0 8a 47 9a bf 31 9d 84 3f c2 29 50 bf b3 49 3b bf
       -1.2053082 1.0360471 -0.8131372 -0.7315933

position_embedding_table.weight f4 [10, 16]
000000 92 e1 2c 3f 7e a1 82 bf d0 29 3e 3f 4a 6f 9e 3e
       0.67531693 -1.0205534 0.7428255 0.30944282
000010 81 ec 50 bf c3 0d bf bf 5a 03 b9 3f 61 3e cd 3f
       -0.81610876 -1.4926075 1.4454148 1.6034662
000020 df 0a da 3d 68 cd a1 bf 73 16 8c bf d3 62 16 be
       0.10646605 -1.264081 -1.0944351 -0.14686136
000030 a5 0c 1e bf e4 e3 38 3f 8e 76 fe be 98 e2 cb bf
       -0.61738044 0.72222733 -0.49699825 -1.5928526
000040 52 d0 4e bf d8 6d a5 3f 9b 78 59 3f 83 e3 30 bf
       -0.8078662 1.2924147 0.84949654 -0.69097155
000050 72 51 60 bf 73 03 9e be a4 5f 13 3f 72 69 3a be
       -0.87624276 -0.30862007 0.5756781 -0.18204287
000060 15 64 94 bd 11 29 70 3f 49 51 3d 3f 1e 5f 57 3f
       -0.07245652 0.9381266 0.73952156 0.8412951
000070 7f cf c1 bf bd 97 16 bf 1c 6e 00 40 f7 8b 6b 3f
       -1.5141448 -0.58825284 2.0067205 0.92010444
000080 e2 f3 60 bf 74 fe 5d 3f ee 44 1f 3f fc 87 8f bf
       -0.87872136 0.8671639 0.62214553 -1.1213374
000090 b2 a6 83 bf 03 c1 b6 be c8 53 c2 3f e2 37 cb be
       -1.0285246 -0.3569413 1.5181818 -0.39691073
0000a0 a6 b0 b0 be 9e b7 b8 3e 66 82 74 bd 90 8d 1d 3e
       -0.34509772 0.3607759 -0.05969467 0.15386033
0000b0 91 a9 a8 be 0a 2e 26 bf ef a9 83 3f 06 67 42 bf
       -0.3294187 -0.64914 1.0286235 -0.7593845
0000c0 ff 05 90 be 50 04 99 3d 34 65 b8 bf ea 0b 47 3f
       -0.28129575 0.07471526 -1.4405885 0.77752554
0000d0 7b 0a 36 3f 0e 2e 18 bf 57 a2 e0 bf a0 72 f5 be
       0.7110974 -0.59445274 -1.7549542 -0.47939014
0000e0 3b 3a af 3e 3a bc 21 bf cd 3b 84 3e c8 26 26 bf
       0.34224114 -0.63177836 0.25826874 -0.64902925
0000f0 5c 8c 19 bf c2 49 db bd 2a fd b4 bf 50 27 b9 bf
       -0.59979796 -0.107074276 -1.413976 -1.4465122
000100 c7 83 09 3d 0a 7a e3 3d 75 af bb be 40 1e c5 3f
       0.03357294 0.111072615 -0.366573 1.5399857
000110 84 b1 1d 3f 6e 87 ab be 1e b7 28 c0 70 d0 3d 3f
       0.6159899 -0.33501762 -2.6361766 0.74146175
000120 dc fd 49 3f f3 e9 17 3f 5f fd d6 3f 4c ee b0 be
       0.78902984 0.59341353 1.6796073 -0.34556806
000130 d7 84 19 c0 8f 49 b6 3f 89 93 8b be a5 80 8d 3f
       -2.398733 1.4241198 -0.27260998 1.1054884
000140 bd 8c 3a 3f 2f fc 75 3e 45 95 92 bf b2 70 c2 3e
       0.72871 0.24021982 -1.1451803 0.37976605
000150 54 b2 cd be 3e c1 3c 3f 70 2a 70 bf 75 c5 00 3f
       -0.40175116 0.73732364 -0.93814754 0.50301296
000160 76 4c b8 be 28 fe 10 3f e1 fb 9f bf c2 f2 11 bf
       -0.35995835 0.5663781 -1.2498742 -0.57011044
000170 d8 4a fa bf 45 93 ad bf de aa 70 bf 3d 70 89 3c
       -1.955409 -1.3560568 -0.9401072 0.016777152
000180 ca a9 8e 3f 31 f9 46 bf 3e 71 4b 3f c6 fd 95 3e
       1.1145566 -0.77723986 0.7946967 0.29295176
000190 48 cb 7d 3e 89 ff 42 bf cd e6 a5 be 22 36 ab 3f
       0.24784577 -0.76171166 -0.3240265 1.3375895
0001a0 15 7e b3 3f 06 6b ba 3e df f9 43 ba 2b f4 81 be
       1.4022852 0.36409777 -0.00074758934 -0.25381598
0001b0 fd 29 e3 be 14 3d 3e 3f 6b 2f fc bf ff 5e ad bf
       -0.44367972 0.7431195 -1.9701971 -1.3544616
0001c0 e3 41 d8 bf f6 11 9f be 9f ff 04 bf 72 d1 2c 3f
       -1.6895107 -0.3106839 -0.51952547 0.6750709
0001d0 f8 1d f9 be ae fc d2 bf c5 3d a4 3e 0c e6 65 3e
       -0.48655677 -1.6483362 0.32078376 0.22451037
0001e0 eb cb 72 3e 57 36 29 bf 8f 9b 60 bf d0 b7 43 be
       0.23710601 -0.6609854 -0.87737364 -0.19113088
0001f0 e2 7f 89 be d8 9a 20 3f 2c 87 27 bf 46 2f ef bf
       -0.2685538 0.6273627 -0.6544063 -1.8686302
000200 ba 89 73 3f 2b 43 d2 bf ae 1d 8b 3f 82 89 bb bf
       0.9513203 -1.6426748 1.0868433 -1.4651339
000210 a8 29 e1 bf 20 d0 66 3e c6 d9 d1 3e 8f b2 f4 3e
       -1.7590837 0.22540331 0.4098646 0.4779248
000220 64 78 02 bf d5 cd 02 3f bc a6 db 3f 57 ad e4 bf
       -0.5096495 0.51095325 1.7160258 -1.7865399
000230 96 16 10 c0 25 2c 06 40 fa fa 29 bf dd 12 e8 3f
       -2.2513785 2.0964444 -0.66398585 1.8130757
000240 73 e1 02 3f e1 51 b0 3f 3d fe ac 3e 8a 90 94 3f
       0.5112526 1.3774987 0.33787718 1.160661
000250 c6 57 1b 3f 68 90 82 3f 91 9e db bd be 6d 57 3f
       0.60680807 1.0200319 -0.107236035 0.8415183
000260 4e 7e 93 3f 62 6f 16 40 1f 79 1a be 86 bb 63 bf
       1.152292 2.3505483 -0.15085267 -0.88958013
000270 35 62 09 bf c9 69 49 bf 8a 0d 7b 3e ac 07 24 bf
       -0.5366548 -0.7867704 0.24516883 -0.64074206

blocks.0.msa.heads.0.tril f4 [10, 10]
000000 00 00 80 3f 00 00 00 00 00 00 00 00 00 00 00 00
       1.0 0.0 0.0 0.0
000010 00 00 00 00 00 00 00 00 00 00 00 00 00 00 00 00
       0.0 0.0 0.0 0.0
000020 00 00 00 00 00 00 00 00 00 00 80 3f 00 00 80 3f
       0.0 0.0 1.0 1.0
000030 00 00 00 00 00 00 00 00 00 00 00 00 00 00 00 00
       0.0 0.0 0.0 0.0
000040 00 00 00 00 00 00 00 00 00 00 00 00 00 00 00 00
       0.0 0.0 0.0 0.0
000050 00 00 80 3f 00 00 80 3f 00 00 80 3f 00 00 00 00
       1.0 1.0 1.0 0.0
000060 00 00 00 00 00 00 00 00 00 00 00 00 00 00 00 00
       0.0 0.0 0.0 0.0
000070 00 00 00 00 00 00 00 00 00 00 80 3f 00 00 80 3f
       0.0 0.0 1.0 1.0
000080 00 00 80 3f 00 00 80 3f 00 00 00 00 00 00 00 00
       1.0 1.0 0.0 0.0
000090 00 00 00 00 00 00 00 00 00 00 00 00 00 00 00 00
       0.0 0.0 0.0 0.0
0000a0 00 00 80 3f 00 00 80 3f 00 00 80 3f 00 00 80 3f
       1.0 1.0 1.0 1.0
0000b0 00 00 80 3f 00 00 00 00 00 00 00 00 00 00 00 00
       1.0 0.0 0.0 0.0
0000c0 00 00 00 00 00 00 00 00 00 00 80 3f 00 00 80 3f
       0.0 0.0 1.0 1.0
0000d0 00 00 80 3f 00 00 80 3f 00 00 80 3f 00 00 80 3f
       1.0 1.0 1.0 1.0
0000e0 00 00 00 00 00 00 00 00 00 00 00 00 00 00 00 00
       0.0 0.0 0.0 0.0
0000f0 00 00 80 3f 00 00 80 3f 00 00 80 3f 00 00 80 3f
       1.0 1.0 1.0 1.0
000100 00 00 80 3f 00 00 80 3f 00 00 80 3f 00 00 00 00
       1.0 1.0 1.0 0.0
000110 00 00 00 00 00 00 00 00 00 00 80 3f 00 00 80 3f
       0.0 0.0 1.0 1.0
000120 00 00 80 3f 00 00 80 3f 00 00 80 3f 00 00 80 3f
       1.0 1.0 1.0 1.0
000130 00 00 80 3f 00 00 80 3f 00 00 00 00 00 00 00 00
       1.0 1.0 0.0 0.0
000140 00 00 80 3f 00 00 80 3f 00 00 80 3f 00 00 80 3f
       1.0 1.0 1.0 1.0
000150 00 00 80 3f 00 00 80 3f 00 00 80 3f 00 00 80 3f
       1.0 1.0 1.0 1.0
000160 00 00 80 3f 00 00 00 00 00 00 80 3f 00 00 80 3f
       1.0 0.0 1.0 1.0
000170 00 00 80 3f 00 00 80 3f 00 00 80 3f 00 00 80 3f
       1.0 1.0 1.0 1.0
000180 00 00 80 3f 00 00 80 3f 00 00 80 3f 00 00 80 3f
       1.0 1.0 1.0 1.0

blocks.0.msa.heads.0.key.weight f4 [8, 16]
000000 fe c2 f0 3d b8 3f 0e be 53 70 9a 3e 50 8e 0b 3d
       0.11755942 -0.13891494 0.30163822 0.034071267
000010 8f c1 c4 3d 4a c0 e0 bc c6 14 5c be 11 41 18 3e
       0.09607231 -0.02743544 -0.214923 0.14868571
000020 90 37 bc 3e f2 34 47 3c 87 dd 17 3e e5 9b 9d bb
       0.3676114 0.012158619 0.148306 -0.004809844
000030 9c 59 91 3e f9 b3 89 3e 59 f7 cf bd dd 96 20 3d
       0.2838868 0.2689512 -0.101546 0.039206374
000040 2b 32 46 bd 65 86 b5 3d 2a 29 4f 3d fe 7c fe bd
       -0.048387688 0.08863524 0.050576366 -0.12426184
000050 60 8e 75 bd 5f 00 f5 bd 98 83 1f 3d 3a 12 2f be
       -0.059950233 -0.119629614 0.038943857 -0.17096797
000060 44 9b 74 be fa 3c 02 be 5d f5 9d be e4 65 ab bc
       -0.23887354 -0.12718573 -0.3085126 -0.020922609
000070 94 56 4c 3e cb 93 22 be 76 22 85 3d 87 e8 8d 3b
       0.19954902 -0.15876691 0.065007135 0.004330698
000080 3c 8a eb 3a 95 40 d5 bc e0 51 10 be 53 cb e7 bc
       0.0017970274 -0.026031772 -0.14093733 -0.028295195
000090 c4 72 03 3e 13 fe 1d be dd c2 6f 3c fb bd 7a 3e
       0.12836748 -0.15428953 0.014633861 0.24486534
0000a0 76 d8 42 3e b2 ee f4 3d f4 51 9e 3d ca 48 82 3d
       0.19027886 0.1195959 0.07730475 0.0636154
0000b0 a0 0f 93 bc f9 e4 c1 bd b5 0f fa bd e1 ff 59 be
       -0.017951787 -0.09467501 -0.12210027 -0.21289016
0000c0 32 8f b7 3b a6 c7 19 3e ff 23 cb bc 72 e2 54 bd
       0.005601787 0.15017566 -0.024797438 -0.051973768
0000d0 9d d2 2f 3d ee 43 7c 3e 6f c2 44 3e d8 9c af bd
       0.042925466 0.24635288 0.19214796 -0.085748374
0000e0 de 56 73 3e 78 c4 6e 3e 6f b7 aa bd 89 7b 2a be
       0.23763606 0.23317134 -0.083357684 -0.16648687
0000f0 7e 60 b3 3d 86 58 a2 3d 38 72 29 be b8 88 7b 3d
       0.08758639 0.07927041 -0.16547477 0.061409682
000100 9f e8 36 bd b1 63 1b be 28 1a d5 3d 2d 3a a3 bd
       -0.04465544 -0.15174748 0.104053795 -0.079700805
000110 71 63 90 be 4b 05 9d bc cb 71 71 bd 00 c7 e8 bd
       -0.28200868 -0.019167563 -0.058946412 -0.11366081
000120 69 d1 5f 3d de f7 8f 3c 82 64 e7 bd 5f 16 87 3d
       0.05464307 0.017574247 -0.11298467 0.06596064
000130 9b b0 5d bd 70 83 e4 3d c0 07 f3 bd 9d 3f 8c bc
       -0.054123502 0.11157882 -0.118667126 -0.017120177
000140 df bf 45 3d ec 27 83 3d 1e cc 2f 3e a6 e2 34 3e
       0.048278686 0.06404099 0.17167708 0.17664585
000150 c1 b4 8d 3e 3e 8f 87 3d a5 e6 6a 3e 9a db ed bc
       0.27676967 0.06619118 0.22939546 -0.029035378
000160 12 af 56 3e dd 18 1a be f1 d3 8e 3e d1 fc 96 bd
       0.20965222 -0.15048547 0.27896073 -0.0737244
000170 19 ad ec 3d 36 ee aa 3e 4c 82 47 3c b9 9e 0d be
       0.11556453 0.33384866 0.012177061 -0.13830079
000180 ef 15 05 3e 70 d3 17 bc 4a 0b d2 bd e8 f4 7a be
       0.12996648 -0.009266719 -0.102560595 -0.24507487
000190 1b 04 16 3d f4 56 4d be 85 1c ce bc a9 5a 87 3d
       0.03662501 -0.20052701 -0.025160084 0.06609089
0001a0 88 f4 99 bd ed a2 19 be 4f 17 2c bc 66 1f 09 be
       -0.07517344 -0.15003558 -0.010503604 -0.13390884
0001b0 28 0b a7 bd 49 7d 32 3d 06 67 28 3e 52 b8 9d 3d
       -0.08156425 0.043576512 0.1644555 0.07701172
0001c0 ac 3b 73 be fd 0d 1c 3e cf 1c 14 3d 35 79 03 be
       -0.23753232 0.15239711 0.036160287 -0.12839206
0001d0 15 46 53 be 1e b5 82 3d ff e2 60 bd 80 69 3b bd
       -0.20632203 0.063822016 -0.05490398 -0.04575491
0001e0 e4 3e b9 3d 4c d5 d1 bd c4 fb 99 be 54 65 34 3d
       0.090451986 -0.10245761 -0.30074894 0.044041947
0001f0 b2 9d a9 bd d6 b2 b2 be a2 c2 35 3d 52 e1 22 3e
       -0.08282031 -0.34902066 0.04437507 0.15906265

blocks.0.msa.heads.0.query.weight f4 [8, 16]
000000 74 11 87 3e 88 9b 16 bc 01 8e 41 3e 88 63 fd 3d
       0.26380503 -0.009192355 0.18901826 0.123725
000010 32 f1 45 3e 03 ce 82 bc 7b 67 6d bd 36 06 88 3e
       0.1933029 -0.015967375 -0.057960015 0.2656724
000020 e1 97 be 3e 66 bf a0 bc bd 09 ed 3d 13 82 d0 3d
       0.3722525 -0.019622516 0.11574123 0.1018106
000030 84 25 7e 3e 41 f2 2a 3e 02 97 fb bd d9 b3 49 3e
       0.24818999 0.16693975 -0.12284662 0.19697513
000040 ec 6b 5f 3d 6a e9 9e 3d e5 e6 22 3e a9 db 8b be
       0.05454628 0.07759364 0.15908392 -0.27316025
000050 d1 1f 2a 3d 12 5b 2d bd 4b 1c 61 3e 37 c3 f3 3b
       0.04153425 -0.04232318 0.21983449 0.007439043
000060 94 98 e7 bd ea 07 33 be 45 25 63 be 7c 6d 34 3e
       -0.11308399 -0.17483488 -0.22182186 0.1761989
000070 b4 29 4c 3d 8b 1e 98 be 3d 66 3c 3d 27 1c 0d bd
       0.04984446 -0.29710802 0.04599594 -0.034450676
000080 43 03 90 3d f8 09 a9 bd 9a 4c 0d 3d 62 d8 f2 3d
       0.07031872 -0.082538545 0.03449688 0.11857678
000090 d2 8c 9c 3d cb 36 2f bd f3 13 e6 3d c7 c9 a4 3e
       0.07644047 -0.042776864 0.11234274 0.32185194
0000a0 bb d1 f0 3d 87 c9 23 3e 94 4d 26 be 5f ca 49 3e
       0.11758753 0.15994845 -0.16240531 0.19706105
0000b0 67 3e 65 3d 56 61 8e bd 9a dc 20 3e 5a b8 56 be
       0.055967715 -0.06952159 0.15709153 -0.20968762
0000c0 40 9f 02 bc 9d fa 9a bd 90 e4 d0 3d a4 7b 57 bc
       -0.0079725385 -0.07567332 0.10199845 -0.013152037
0000d0 ed 38 66 bc 5c aa 98 3d f9 fd 61 3e d3 a1 34 bd
       -0.014051658 0.074543685 0.22069539 -0.04409964
0000e0 00 b4 7a 3e fa d6 a0 3e 25 ba 2b bd 6e 24 22 bd
       0.24482727 0.31414014 -0.041925568 -0.039585523
0000f0 0b 1f ef bc f1 04 50 bd 8b 45 2f be 57 57 b4 3d
       -0.029189607 -0.050785962 -0.17116372 0.08805721
000100 d8 05 ad bd d4 6f 8a be 71 54 09 bc a6 ac 4d be
       -0.0844838 -0.27038443 -0.008381949 -0.20085391
000110 4a 7c 17 be 07 c4 11 3e 97 3f 0a 3e 14 02 e0 3d
       -0.14793506 0.14234935 0.1350082 0.10937896
000120 d7 59 de bd 94 27 f0 3d ca fc 65 3c 2f 6f 2f 3e
       -0.10856979 0.11726299 0.01403732 0.17132257
000130 da 4b 4a bd 34 f4 b2 3d 85 9c f4 3c 13 83 da 3d
       -0.049388744 0.08737984 0.02985979 0.10669532
000140 ba 8e 2f bc de 36 6e 3c 22 d3 44 3e bf e0 87 3e
       -0.010715181 0.014539449 0.19221166 0.26538655
000150 8b 37 72 3e a7 df 3f 3e b0 b1 8c 3e 25 74 bc 3d
       0.23654 0.1873766 0.27479315 0.0920184
000160 18 ba 1f 3d fa 59 ce bd a7 39 97 3e 7d 76 0d bd
       0.038995832 -0.100757554 0.29536173 -0.034536827
000170 47 d4 0f 3d ca 7d 7b 3e 0e ab 3f 3e 30 3c 78 be
       0.035114553 0.24559703 0.18717596 -0.2424171
000180 e4 f7 5c 3e 26 12 6c be 6b 4d 05 3e a6 48 fb bd
       0.21578938 -0.23053798 0.13017814 -0.12269716
000190 4d 0b c3 3d d3 65 2d be ee 70 85 bd 4c 24 0f be
       0.0952364 -0.16933374 -0.0651568 -0.1397869
0001a0 07 53 6a be ab 5f bf 39 fb dd c0 bd 20 fd 30 be
       -0.22883235 0.00036501637 -0.094173394 -0.1728406
0001b0 77 15 bd bd 2e 80 31 3e c6 4d db 3d 14 b8 1a 3e
       -0.0923261 0.17334053 0.107081935 0.15109283
0001c0 f3 49 33 be 1f 4d a3 3b 25 b0 82 3d de 46 3a 3d
       -0.17508678 0.004983559 0.06381253 0.04547774
0001d0 9e 12 0b bd 58 e2 d4 3d ac a2 2e be 50 5b 20 3d
       -0.0339533 0.10394734 -0.17054242 0.039149582
0001e0 3b 9b e5 bd ee 7d 57 be b8 37 1c be 87 56 d5 3d
       -0.112112485 -0.21044132 -0.1525563 0.104168944
0001f0 b1 53 35 be bc c3 a6 be e3 81 13 3e 48 63 5d bc
       -0.17707707 -0.32571208 0.14405017 -0.01351244

blocks.0.msa.heads.0.value.weight f4 [8, 16]
000000 24 3f 01 be 91 fa 25 b9 28 13 f3 bd da 31 ba bd
       -0.12621742 -0.0001582897 -0.11868888 -0.0909154
000010 a7 1e 36 be 4c 74 cf 3d d6 41 36 bb 2c 8a 3c be
       -0.1778513 0.10129604 -0.0027810237 -0.18412083
000020 c6 4a f7 bd 2b 14 15 be 90 eb 9f be 91 88 95 3d
       -0.12074809 -0.14558475 -0.31234407 0.073014386
000030 0a fb 40 be 6f d9 02 bd ec 4d 34 3d 15 75 12 be
       -0.18845764 -0.031945642 0.044019625 -0.14302476
000040 b9 5d 60 be 49 11 83 3e 87 fb 15 bd 04 8c 45 bd
       -0.21910752 0.25599125 -0.03661683 -0.048229232
000050 a3 88 13 3e db c2 17 3e ca c8 67 bd 0f 24 e6 3c
       0.14407592 0.14820425 -0.05658797 0.028093366
000060 d1 a5 b2 bd fe 3d 33 be 9a cc 01 3e bd ac 59 3c
       -0.08723033 -0.17504117 0.12675706 0.013285813
000070 85 1c 7b 3e 9f 57 36 be d7 da cc 3d eb af 22 3d
       0.24522598 -0.17806862 0.10002678 0.03971855
000080 0c a1 06 be 09 fc c3 3d 8d d1 42 3d 6c 80 2d 3d
       -0.13147372 0.09569556 0.047563124 0.0423588
000090 5e 2a 7c 3d 2c a0 98 3d 40 8e b0 3d 0e e1 bf bd
       0.061563842 0.07452425 0.08620882 -0.09369098
0000a0 31 41 9c bc 29 3b 14 be 0a d7 c0 bb fb eb 7c bc
       -0.019074054 -0.14475693 -0.0058850097 -0.0154371215
0000b0 39 65 56 3e f6 73 9b 3d 8a 55 60 3d 29 c1 5a 3d
       0.20937051 0.07590477 0.054769076 0.053406868
0000c0 0d 04 85 3d ad 72 30 3e bf 26 94 bd 62 54 f6 3c
       0.06494913 0.17231245 -0.07233953 0.030069534
0000d0 a7 4f 39 3e 9b ef 9a 3d 71 21 7a 3d 2f b0 cc 3d
       0.18096791 0.07565232 0.06106705 0.09994542
0000e0 8a ee cc bd 2f 0a 2a 3e 50 c3 49 3d 86 1b 64 bd
       -0.10006435 0.16605447 0.04925853 -0.05569031
0000f0 59 62 12 be b7 0e e5 bd 5d d4 fd 3b 73 cc c9 bd
       -0.14295329 -0.11184447 0.007746263 -0.09853449
000100 ec 20 97 bc f9 6a 42 be 0a b0 00 be ed 1f ce 3d
       -0.018448316 -0.1898612 -0.12567154 0.10064683
000110 f5 ff 00 3e c3 71 b5 3d 44 d3 38 be 83 ec 2e bd
       0.1259764 0.08859589 -0.18049341 -0.042706024
000120 ce a8 85 3c b5 ad 4d be 18 68 e3 3b 42 6e 65 be
       0.016315844 -0.20085795 0.006939899 -0.22405341
000130 5c 33 bb bd ac 8f 6c 3e 79 5c 49 bd bf a7 0c bd
       -0.091406554 0.23101681 -0.049160454 -0.034339663
000140 0a df e2 3d ae 8f 56 3d 39 2e 1f 3e 06 51 01 bd
       0.110776976 0.052383117 0.15544976 -0.03157141
000150 6b fd 91 3c e0 81 dd 3d 21 35 80 3e 6a cb ef 3d
       0.017821034 0.10815787 0.25040534 0.1170872
000160 d3 60 18 3e a5 b2 15 3e 03 c9 15 3e 5b 0a d4 3d
       0.14880686 0.14618929 0.14627461 0.10353538
000170 d8 3d 75 3e db 0d 5f 3d 4c 10 e5 bd b8 87 e4 3b
       0.23949373 0.054456573 -0.11184749 0.0069741867
000180 0c 6f 39 3e 04 9b ec bc 9b e2 b0 3d b4 7f 03 bd
       0.18108767 -0.028882511 0.086369716 -0.03210421
000190 bc 10 40 3e e2 16 41 bc 21 c0 ca b8 5c 9e 02 bd
       0.18756384 -0.011785241 -9.6678974e-05 -0.031889305
0001a0 45 54 c0 bd d0 3e 50 be 88 54 8a bd 23 a3 4b 3e
       -0.09391073 -0.20336461 -0.06754404 0.1988645
0001b0 e5 c9 0b 3e f1 19 79 bc 3e 40 6e 3d c3 13 c9 bd
       0.13651235 -0.015203939 0.058166735 -0.098182224
0001c0 20 55 9d 3e db 0f 1d be 54 85 54 3a 48 f4 2f 3e
       0.30729008 -0.1533808 0.00081070256 0.1718303
0001d0 ab de 3d 3e b5 53 fe 3d 61 07 90 3d 82 4d 89 bb
       0.18541972 0.124183096 0.070326574 -0.004190148
0001e0 48 90 71 3e 59 7c bf bd d4 81 a0 3d 4f cd 60 3c
       0.23590195 -0.09349889 0.07837263 0.013720824
0001f0 e4 aa 25 3e ca 30 c0 3e 67 e6 9a bd 2c a8 97 bd
       0.16178471 0.37537223 -0.07563477 -0.07405123

blocks.0.msa.heads.1.tril f4 [10, 10]
000000 00 00 80 3f 00 00 00 00 00 00 00 00 00 00 00 00
       1.0 0.0 0.0 0.0
000010 00 00 00 00 00 00 00 00 00 00 00 00 00 00 00 00
       0.0 0.0 0.0 0.0
000020 00 00 00 00 00 00 00 00 00 00 80 3f 00 00 80 3f
       0.0 0.0 1.0 1.0
000030 00 00 00 00 00 00 00 00 00 00 00 00 00 00 00 00
       0.0 0.0 0.0 0.0
000040 00 00 00 00 00 00 00 00 00 00 00 00 00 00 00 00
       0.0 0.0 0.0 0.0
000050 00 00 80 3f 00 00 80 3f 00 00 80 3f 00 00 00 00
       1.0 1.0 1.0 0.0
000060 00 00 00 00 00 00 00 00 00 00 00 00 00 00 00 00
       0.0 0.0 0.0 0.0
000070 00 00 00 00 00 00 00 00 00 00 80 3f 00 00 80 3f
       0.0 0.0 1.0 1.0
000080 00 00 80 3f 00 00 80 3f 00 00 00 00 00 00 00 00
       1.0 1.0 0.0 0.0
000090 00 00 00 00 00 00 00 00 00 00 00 00 00 00 00 00
       0.0 0.0 0.0 0.0
0000a0 00 00 80 3f 00 00 80 3f 00 00 80 3f 00 00 80 3f
       1.0 1.0 1.0 1.0
0000b0 00 00 80 3f 00 00 00 00 00 00 00 00 00 00 00 00
       1.0 0.0 0.0 0.0
0000c0 00 00 00 00 00 00 00 00 00 00 80 3f 00 00 80 3f
       0.0 0.0 1.0 1.0
0000d0 00 00 80 3f 00 00 80 3f 00 00 80 3f 00 00 80 3f
       1.0 1.0 1.0 1.0
0000e0 00 00 00 00 00 00 00 00 00 00 00 00 00 00 00 00
       0.0 0.0 0.0 0.0
0000f0 00 00 80 3f 00 00 80 3f 00 00 80 3f 00 00 80 3f
       1.0 1.0 1.0 1.0
000100 00 00 80 3f 00 00 80 3f 00 00 80 3f 00 00 00 00
       1.0 1.0 1.0 0.0
000110 00 00 00 00 00 00 00 00 00 00 80 3f 00 00 80 3f
       0.0 0.0 1.0 1.0
000120 00 00 80 3f 00 00 80 3f 00 00 80 3f 00 00 80 3f
       1.0 1.0 1.0 1.0
000130 00 00 80 3f 00 00 80 3f 00 00 00 00 00 00 00 00
       1.0 1.0 0.0 0.0
000140 00 00 80 3f 00 00 80 3f 00 00 80 3f 00 00 80 3f
       1.0 1.0 1.0 1.0
000150 00 00 80 3f 00 00 80 3f 00 00 80 3f 00 00 80 3f
       1.0 1.0 1.0 1.0
000160 00 00 80 3f 00 00 00 00 00 00 80 3f 00 00 80 3f
       1.0 0.0 1.0 1.0
000170 00 00 80 3f 00 00 80 3f 00 00 80 3f 00 00 80 3f
       1.0 1.0 1.0 1.0
000180 00 00 80 3f 00 00 80 3f 00 00 80 3f 00 00 80 3f
       1.0 1.0 1.0 1.0

blocks.0.msa.heads.1.key.weight f4 [8, 16]
000000 31 6f 9a bd 5b 0c a4 3d d6 d9 20 3c d8 02 09 be
       -0.07540739 0.08010169 0.009817561 -0.13379991
000010 45 16 6c 3d d8 ea 85 be 7f 26 39 3e 19 10 a7 3d
       0.057638425 -0.26155734 0.18081091 0.08157367
000020 6e 47 8b 3d a9 7d a8 be c0 f6 d0 bc 0e 13 23 3e
       0.068007335 -0.3290837 -0.025508285 0.15925238
000030 d1 28 02 3e d1 fc ad 3e 72 73 51 3e 30 12 f1 3d
       0.12710883 0.33981946 0.20454195 0.11771047
000040 8b 92 20 be df 8e 9c 3d 95 a3 1c be 76 3c 79 3e
       -0.15680902 0.07644438 -0.15296777 0.2433947
000050 84 ea ee 3d 28 d3 ae 3c 91 c3 2a be 26 be a1 be
       0.11665824 0.021340922 -0.16676165 -0.31590384
000060 12 d1 ff bd 15 44 12 3e e8 04 2f 3d 82 c1 8a 3e
       -0.12491049 0.14283784 0.04272929 0.2710076
000070 fe ed 39 3d 3c 58 99 bd c8 ef c4 bd a5 4e c0 3d
       0.045392983 -0.074875325 -0.09616047 0.0939
000080 d7 67 8d bd f3 36 60 bc b3 56 e8 bc 63 81 f5 ba
       -0.069045715 -0.013684976 -0.028361654 -0.0018730577
000090 a5 85 20 bd 0b 09 87 bc 49 e9 0c 3e 9b 99 38 bd
       -0.039189953 -0.016483804 0.13760866 -0.045068365
0000a0 5e 40 d4 3c cd 77 a7 be c8 7b 97 3d d3 a5 67 3e
       0.025909599 -0.32708588 0.07396656 0.2262185
0000b0 65 71 95 3c 31 44 36 be fe 5d 3e 3e da d3 f6 3d
       0.018242547 -0.1779945 0.18590543 0.12052126
0000c0 ba cd 01 be 40 9d 00 bd de e6 35 be 5e 1b 48 be
       -0.12676135 -0.031399965 -0.1776385 -0.1954169
0000d0 59 9e 12 bd e5 66 e0 3c ea a5 eb bd 96 ce 28 be
       -0.035795543 0.027392814 -0.11506255 -0.16485056
0000e0 45 32 5e 3a ad 22 2a be 85 4a 2a 3e 43 bd 98 3c
       0.00084761187 -0.1661479 0.1662999 0.018644935
0000f0 53 cf 98 be c0 90 1e 3e d3 60 6f be 28 f2 7c 3e
       -0.29845676 0.15484905 -0.2337678 0.2470175
000100 45 80 f9 3d 50 00 40 3e a1 fd 28 bc 3a 20 4b bd
       0.121826686 0.18750119 -0.010314376 -0.04959128
000110 32 86 f7 bd 9a 3f 3f 3e 8b ca 39 3e 3e f8 19 3e
       -0.120861426 0.18676606 0.1814367 0.15036103
000120 94 8f 92 bc 0d eb 08 bd bd 5b 8a 3e a5 94 87 be
       -0.017890729 -0.033427287 0.27023116 -0.26480594
000130 36 6e 55 3d a8 98 0d be 3e 43 14 bd 79 72 99 ba
       0.05210706 -0.13827765 -0.03619694 -0.0011707089
000140 eb af 58 3b c6 f1 15 3e 34 30 0a be f7 de 58 bd
       0.003306384 0.1464301 -0.1349495 -0.05294701
000150 d2 25 bf be 7c 55 1e 3e e1 2b 40 3e e6 3d 7f bd
       -0.37333542 0.15462297 0.18766738 -0.06231489
000160 bc 71 64 be d2 81 43 bd d1 72 1c bd 71 a9 57 3e
       -0.22309011 -0.04773123 -0.038195435 0.2106073
000170 d1 99 9a 3d 0b 26 af bb f1 ca 96 bd 7b a3 8f bd
       0.075488694 -0.0053451112 -0.07362927 -0.07013603
000180 83 15 94 bd af 2f 1d be 37 fe 80 3d f3 34 3f be
       -0.072306655 -0.15350221 0.06298488 -0.18672542
000190 52 8d 43 be 66 5d 1a 3d 6c d5 2d bd 4b 85 f3 bd
       -0.19096878 0.037686728 -0.042439863 -0.11890658
0001a0 ea ba 9b be e2 27 a7 bd 14 64 30 bd 96 96 54 be
       -0.30416042 -0.08161904 -0.043064192 -0.20760569
0001b0 5a f8 ff 3c cb 39 4d bd 0d 2b ba 3d c0 1c 6c 3d
       0.031246353 -0.050103944 0.090902425 0.057644606
0001c0 ec 69 d3 bd f3 e6 f1 3d 45 bc 8c 3c 58 07 25 3d
       -0.10322937 0.11811628 0.017179618 0.040290207
0001d0 b4 9a ff bc 64 20 32 bd 1e d0 82 3e 95 49 02 3e
       -0.031201698 -0.04348792 0.25549406 0.12723382
0001e0 12 98 ca 3d d2 3c 7e be c8 02 c3 39 2e ac 07 be
       0.09892286 -0.24827889 0.0003719537 -0.13249275
0001f0 45 0c 59 3e ce a8 6e bd 77 3a a3 3d 62 b8 c6 bd
       0.21196087 -0.058266453 0.07970136 -0.09703137

blocks.0.msa.heads.1.query.weight f4 [8, 16]
000000 06 59 80 3c 83 2e cd 3d 55 df df bd 0c f2 0b be
       0.01566745 0.10018637 -0.10931269 -0.13666552
000010 74 74 90 3e 52 cc 8e be 26 02 22 3e 5c 37 a0 3a
       0.28213847 -0.2789026 0.15821132 0.001222353
000020 97 92 00 bd 61 4b b9 bc 60 25 8d bc 5a 23 82 3e
       -0.0313898 -0.022618951 -0.017229736 0.25417596
000030 ea c4 43 3d db 9f d1 3e 47 53 c9 3c 5d 50 3c 3e
       0.047795214 0.40942273 0.024575843 0.18390031
000040 40 2a 0b be 3d 28 de 3d 67 c5 24 3d ad c0 45 3d
       -0.13590336 0.108475186 0.04022732 0.048279453
000050 c2 6c 25 3e 4c 8f d5 ba ce 6e 17 3e 48 93 b6 bd
       0.16154769 -0.0016293316 0.14788362 -0.089148104
000060 01 e6 9d bd 5e a7 0f 3e f1 79 fa 3d c4 46 1e 3e
       -0.077098854 0.1402869 0.1223029 0.15456682
000070 4a 1e 65 be e2 bf 4b be ba b1 58 ba f8 da 35 be
       -0.22374836 -0.19897416 -0.00082662294 -0.17759311
000080 94 81 3a bd fb 78 96 bd ed 81 ae 3d 5c a0 fb ba
       -0.04553373 -0.07347294 0.08520875 -0.0019197571
000090 ba 2e f1 bc 2a 54 83 bd 7f 83 67 bd 11 63 5c 3e
       -0.029441226 -0.064125374 -0.05652189 0.21522166
0000a0 c5 61 74 3e a9 5a 8e be 0e 55 77 3d f2 61 14 3d
       0.23865421 -0.27803543 0.06038385 0.03622622
0000b0 76 e8 26 3d ea 84 65 be 23 56 b8 bd 34 23 cb 3d
       0.040749036 -0.22413984 -0.09000804 0.09918824
0000c0 db 23 ad bd 5b 8d e4 bd 6c 11 1a be d6 24 8a be
       -0.084541045 -0.11159774 -0.15045708 -0.2698123
0000d0 1a b6 43 be f8 70 98 3d 03 c3 ff 3c ea 4b 26 bc
       -0.19112435 0.07443422 0.031220919 -0.010149935
0000e0 dc 39 26 3d b7 c9 8c be 30 ed 5d 3e 13 60 e0 bc
       0.040582523 -0.27497646 0.21672511 -0.027389562
0000f0 ca 16 88 be 18 e7 5e 3c ab 00 ae bd 90 d0 4c bd
       -0.26579887 0.013604902 -0.08496221 -0.05000359
000100 a4 df 44 be a8 a0 d3 3d f2 0d 2f 3a f3 1f dd 3c
       -0.19225937 0.10333377 0.0006677798 0.026992774
000110 35 1f 39 3b a7 7c f8 bc fd 37 be bc c5 fe 00 3e
       0.002824736 -0.030332876 -0.023220057 0.12597187
000120 0d 8b 8c bd 9a ea ea 3d b0 32 17 3e ce f0 91 3b
       -0.06862459 0.11470528 0.1476543 0.004453755
000130 29 3d 5a be 5f f1 4b bd 46 12 a1 bd 3e 30 3b 3e
       -0.21312393 -0.049790736 -0.078648135 0.18280122
000140 50 d2 05 3e df d9 96 bd 3d 1c a1 3c 67 9a 3a 3d
       0.13068509 -0.07365774 0.019666785 0.045557406
000150 43 36 7c be ab 2c 95 bd b1 8d 53 3e b4 71 dd bd
       -0.24630074 -0.0728391 0.2065952 -0.10812703
000160 73 d5 5a bd 7f 54 d4 3b 7c 96 f3 bd ff bd 5b 3d
       -0.053426217 0.0064797993 -0.11893937 0.05364799
000170 e7 d9 fe 3d 67 f4 b5 3d 54 75 9d bd 66 9d a2 bd
       0.12443905 0.08884507 -0.07688394 -0.079401776
000180 bd 57 54 be 14 eb 8c be 70 5f 0c 3e f2 7e 73 be
       -0.20736594 -0.275231 0.13708282 -0.23778895
000190 26 ef 46 bd 7b fc e9 bd 75 30 2a 3e 73 38 1e be
       -0.048567913 -0.1142511 0.16620047 -0.15451221
0001a0 d9 f4 26 be 93 5f 39 bd 57 28 b3 3d ab 9d be bc
       -0.1630434 -0.045257162 0.087479286 -0.023268541
0001b0 dd 5c b5 3d d2 0d 22 3d 02 a2 12 be f0 40 8c bd
       0.08855603 0.03956396 -0.14319614 -0.06848323
0001c0 4d 6d 05 be fd 53 4d 3d 88 42 e8 bc c5 98 d5 bb
       -0.13029976 0.050128926 -0.028352037 -0.0065184557
0001d0 9d 51 27 3e d2 bb 15 3e 6e 93 8e 3e 18 95 d7 bd
       0.16339727 0.14622429 0.27846855 -0.10526484
0001e0 d3 41 78 3d 55 31 ac 3b bd ad e9 3d 40 ec ee bd
       0.06060965 0.0052549043 0.11410091 -0.11666155
0001f0 35 34 b9 3d 47 42 24 be 02 f7 01 be f1 bc 56 3a
       0.09043161 -0.16040908 -0.12691882 0.00081916066

blocks.0.msa.heads.1.value.weight f4 [8, 16]
000000 04 55 b2 bc 92 dc 81 3d 45 93 a8 3c 24 05 14 3e
       -0.021769054 0.063408986 0.020578036 0.14455086
000010 23 8d 75 3e 28 d5 1a bc d9 40 55 be c7 4a 27 bd
       0.2397962 -0.0094502345 -0.20825519 -0.040842798
000020 55 6a b6 3d 51 39 9d bc e2 64 2f 3e 89 d8 88 3d
       0.08907 -0.01919237 0.17128327 0.06681926
000030 f7 44 35 bd 69 11 09 be d1 25 95 3d 32 f5 a2 39
       -0.044255223 -0.13385548 0.072826035 0.00031081733
000040 ac dd 11 3e 7a c9 8f be 01 cb d3 bc 22 ba 4e bc
       0.14244717 -0.28083402 -0.025853636 -0.01261762
000050 c4 12 94 3d 7c 7b f3 bd 15 af 7a 3e 22 ab 7e 3e
       0.07230142 -0.11888787 0.24480851 0.2486997
000060 4f 12 d0 3c 52 f1 b6 bd e1 8b c4 bb 34 46 e9 3d
       0.025399355 -0.08932747 -0.00599812 0.11390343
000070 8e b2 5a bd 36 d5 71 bd 08 95 4b 3e f5 8a 21 be
       -0.05339294 -0.059041224 0.1988107 -0.15775664
000080 36 50 3e be d3 ea e6 3d 70 70 4a 3d a5 62 22 be
       -0.18585286 0.11275258 0.049423635 -0.15857942
000090 07 ae 7f bd 57 43 5c 3d 3f c6 c5 3d d9 56 79 3b
       -0.062421825 0.053775158 0.09656953 0.003804615
0000a0 d3 6d 18 be 04 9c 26 3e 6f 4e 33 3c e5 6f 73 be
       -0.14885645 0.16270453 0.010943993 -0.23773153
0000b0 e3 89 63 bc ad 67 8e bd a2 15 fc 3a eb 72 63 3d
       -0.013887855 -0.06953368 0.0019232521 0.055529516
0000c0 22 0b 92 3e f9 fd 29 3e 5a 38 21 3d 4d 6f 71 3e
       0.2852412 0.16600789 0.03936038 0.23577614
0000d0 42 8f c0 3d d8 96 ec bb 56 ff 85 be 2a ae aa 3d
       0.09402324 -0.0072201304 -0.26171368 0.083340004
0000e0 4f 95 bd 3c bb 68 21 be 0d 4a 82 3d 03 23 c2 3d
       0.023142485 -0.15762608 0.0636178 0.09479334
0000f0 a5 59 fc bd b8 ab af 3d 8f 66 20 bd 80 40 5a 3e
       -0.12321786 0.085776746 -0.039160307 0.21313667
000100 a5 66 04 3e 67 aa 11 3e 03 cd 28 3c 93 df 09 3e
       0.12929781 0.1422516 0.010302785 0.13464193
000110 8a 05 25 3e 1a 10 ae bd 59 c9 95 3a a3 3e dc 3d
       0.16115394 -0.08499165 0.0011427804 0.107541345
000120 9f a0 79 3e 8e 9a 4e 3e 78 e7 2e be a2 ca 5a bd
       0.24377678 0.20176145 -0.17080486 -0.053415902
000130 3d 44 1d 3e a7 a7 82 3e 64 97 eb bc 49 a6 c0 bd
       0.15358062 0.25518534 -0.028758712 -0.094067164
000140 94 56 35 3e e1 a8 dd bd e1 d0 2b be e5 ae 2a 3e
       0.17708808 -0.10823227 -0.167789 0.1666828
000150 0a 45 80 bd e1 da c5 3d f5 b8 1f bd 1f cc 38 3d
       -0.06263168 0.096608885 -0.03899475 0.04511654
000160 9c 07 3f 3d c6 45 1b 3e a4 71 98 3d f2 5c b3 bc
       0.046638116 0.15163335 0.0744355 -0.021894906
000170 6f c5 bc bd e6 73 ac 3d 68 5b 93 be db 8b 29 3d
       -0.09217345 0.084205434 -0.28780675 0.041393142
000180 82 67 b5 3d 21 54 86 be d3 52 86 3e c1 5a e2 bd
       0.08857633 -0.2623606 0.26235065 -0.11052466
000190 00 23 86 bd 59 0a 97 3c 3e ed 96 bc f3 2f a6 bd
       -0.065496445 0.018437551 -0.018423673 -0.08114614
0001a0 37 7b e8 3d 3a d1 d4 3c c3 0c 0f 3c 9c 00 4c be
       0.11351626 0.025978673 0.00873107 -0.19922107
0001b0 41 19 02 be 52 51 a4 3e fd 73 7f 3d 96 9d 7b be
       -0.12704946 0.32093292 0.062366474 -0.24571833
0001c0 fe a8 84 3c 4e 0a 99 3d ee e0 43 3e e7 4c 10 3d
       0.016193863 0.074726686 0.19128773 0.03522959
0001d0 ac 85 0b be 9b 03 83 bb cf f1 18 3e a7 6b 8f bd
       -0.1362521 -0.0039982325 0.14935993 -0.07002955
0001e0 80 7a 32 be b7 1a ee bd 76 b3 f1 bc f8 2f 72 3e
       -0.17429543 -0.11626189 -0.029504519 0.23651111
0001f0 79 1e 36 3d 53 08 cd 3c 27 95 ce 3d ca 9c 8b 3e
       0.044462655 0.025028383 0.10087042 0.27268058

blocks.0.msa.proj.weight f4 [16, 16]
000000 6b a7 f3 bd 92 ce b3 bd df 47 93 bb 4d 98 6b 3e
       -0.11897167 -0.087796345 -0.0044946517 0.23007317
000010 a6 f5 92 3d d8 c6 8b 3d 08 2a 32 3d e9 ce f7 3b
       0.0717576 0.06825036 0.043497115 0.0075625074
000020 02 eb 86 bd 26 be 12 3d 89 8e 0f 3e 40 c3 17 be
       -0.06587793 0.03582587 0.14019217 -0.14820576
000030 e1 07 02 be bb af 3c be f2 6d c4 bc 50 dc 01 be
       -0.12698318 -0.18426411 -0.023978207 -0.12681699
000040 19 91 d2 bd 0d 54 05 be aa 12 dd 3b 4f 9f 5b 3d
       -0.102815814 -0.13020344 0.0067466097 0.053618725
000050 b3 63 94 bd f8 66 4c be d9 5c 27 3e c2 a9 6b 3e
       -0.072455786 -0.19961154 0.16344012 0.23013976
000060 07 ee a8 bd 9f a8 f4 3d f2 a2 be 3d 71 ec 19 3c
       -0.08248525 0.119462244 0.09308423 0.009394751
000070 95 28 83 bd e0 3d df 3d 94 5e 1a 3e a1 06 7b 3d
       -0.06404225 0.109004736 0.15075141 0.06128562
000080 cc 9d 51 3e 95 75 57 3d 3a d5 0d be e3 71 6f 3d
       0.20470351 0.05260237 -0.1385087 0.05845822
000090 6e 57 11 be b0 08 22 be 51 ed 4c 3e 99 00 ab be
       -0.14193508 -0.15823627 0.20012404 -0.33398893
0000a0 aa ab 45 3e 29 da 12 be ba 70 59 be 53 c9 4b be
       0.19303766 -0.14341034 -0.21234408 -0.19901018
0000b0 db 4b 1b be 9f 3f 20 3e 23 03 a7 3d 4d 49 a1 be
       -0.15165655 0.1564927 0.08154895 -0.31501237
0000c0 82 35 ea bd 18 1f 91 bc 3e a7 93 3d 4c c8 a0 bd
       -0.11435987 -0.017715022 0.07209633 -0.078507036
0000d0 a2 bd 53 be e8 fe 83 bd 10 32 3d be 0e 38 66 3e
       -0.20677808 -0.06445104 -0.18476129 0.2248232
0000e0 0c b1 bc bd be fe 6c 3e f9 ba 21 3e dd 19 fb bc
       -0.092134565 0.23144051 0.1579398 -0.030651981
0000f0 5e cf 08 be ee 86 7b bd 6c 9a ae 3d 01 9c 84 3e
       -0.13360354 -0.061407976 0.085255474 0.25900272
000100 2e d0 b3 bb 8d d1 14 bd 0d 89 ab 3c dd 4b 2e 3d
       -0.0054874634 -0.036332656 0.020939374 0.042552818
000110 fa f9 3c 3e 54 cf 62 3e 0c b6 84 3d 11 d1 7c bd
       0.18454733 0.22149402 0.06480035 -0.06172282
000120 85 25 0a be 07 0f 7b 3e cc 0f 0f 3e 8a 43 e1 3d
       -0.13490875 0.24517451 0.1397087 0.1099921
000130 86 d4 50 3d 09 e7 ff bb e9 ac 24 3e 34 a5 7a 3d
       0.05098393 -0.007809524 0.16081585 0.061192706
000140 ea f1 08 bd db 8b e0 bd 00 d0 ae 3d 42 95 05 3e
       -0.033433832 -0.10964175 0.085357666 0.13045219
000150 69 aa 87 3d 6f 53 d4 3d ad a2 13 be d1 db 80 3e
       0.066243 0.10367476 -0.14417525 0.25167707
000160 38 9f a2 3c b5 7d 74 3e 08 79 08 bc 88 86 3a be
       0.019851312 0.23876078 -0.008329637 -0.18215382
000170 5a 44 0d be ee a3 dc bd 75 ee f0 3c 76 c5 6a 3e
       -0.13795605 -0.107734546 0.02941058 0.22926888
000180 a7 e4 7c 3c 5a 01 67 3d da 0a 6c 3d 38 f9 12 3d
       0.015435374 0.056397773 0.057627536 0.035882205
000190 54 9a a7 3d 30 06 57 bd 19 87 54 be ad a1 39 be
       0.08183733 -0.052496135 -0.2075466 -0.1812808
0001a0 a3 4e 09 3e 41 28 fc bd 75 d2 20 bd 01 07 75 bd
       0.13408904 -0.12312365 -0.039263207 -0.059821133
0001b0 cf 65 41 3d 76 78 87 3d fc 9b 28 be d3 6a 25 be
       0.047216233 0.06614773 -0.16465753 -0.16154031
0001c0 d7 88 6f 3d c0 91 27 3b a2 96 01 3d 4f 89 bd bc
       0.05848011 0.0025569052 0.031637795 -0.023136763
0001d0 4b d4 19 be dc 64 b7 bb 80 25 b9 bc 57 51 a7 bd
       -0.1502239 -0.00559674 -0.02260089 -0.08169811
0001e0 fd 85 f1 3d 8e 66 cc 3d 54 22 4b 3e 08 4d 28 be
       0.11793134 0.09980498 0.19837314 -0.16435635
0001f0 ee 4a 01 bd 85 6c d6 bd 19 a8 e4 3b 8e 46 05 bc
       -0.0315656 -0.10469917 0.0069780466 -0.008134497
000200 67 8a 40 3e 2b ad 80 3d fc 90 39 bd 21 a6 09 be
       0.18802796 0.06283029 -0.045304283 -0.1344228
000210 a1 94 4c be 4d 56 0f 3c 8b 5c 63 3c c3 f5 02 be
       -0.19978572 0.008748603 0.013877044 -0.12789063
000220 d8 bc 9f bc b2 01 f3 3d 69 23 18 be c4 8d 87 bd
       -0.019499227 0.11865558 -0.14857258 -0.066188365
000230 4a 26 8d bc 2e f5 14 3c a1 7f 6f 3e a0 7d 01 be
       -0.017230172 0.0090916585 0.2338853 -0.12645578
000240 51 df 3a 3e 0e f9 50 be ab 2e 49 3e 2e 34 c9 bd
       0.18249251 -0.20407507 0.19646709 -0.098244056
000250 03 5d 6a be 62 f9 37 be c8 74 90 3d 18 82 89 bd
       -0.22887044 -0.17966226 0.07053524 -0.067142665
000260 9f 85 24 be 24 99 47 3e 53 4e 3c be 24 33 15 be
       -0.16066597 0.19492012 -0.18389253 -0.1457029
000270 07 7c 48 be 50 a2 14 be 47 04 53 3e 92 66 35 bd
       -0.19578563 -0.14515042 0.206071 -0.04428727
000280 fe be 9c 3d 13 cb 9c bd fd 88 2f 3d c6 8b e4 3d
       0.07653616 -0.07655921 0.04285525 0.11159472
000290 5e 2a df 3d a7 9d e5 3d 2c 50 e8 3d ed 17 14 be
       0.10896753 0.112117104 0.113434166 -0.14462252
0002a0 ee 9a 50 3c e1 67 d9 3d 59 e4 30 be cf 07 1b 3e
       0.012732251 0.106155165 -0.17274608 0.15139697
0002b0 b6 db 06 bd 36 95 f8 3d 9e 03 02 3e 91 ff 7f be
       -0.032924376 0.12137835 0.12696692 -0.24999835
0002c0 2b 8c 4f be 1a ee 36 bd de 34 4c bb 0e bf 04 bd
       -0.20268314 -0.044660665 -0.003115944 -0.032408766
0002d0 ab 2c 0a 3e fb 12 32 3e 9e 4f 31 3e 8d 95 c4 bd
       0.13493602 0.17390053 0.17315528 -0.09598837
0002e0 d7 98 ed 3d 29 0e a5 bd bd c5 17 be 68 70 3a be
       0.116014175 -0.080593415 -0.14821525 -0.18206942
0002f0 ea ee 8d 3e bd 96 d7 3d 7b 68 85 3d 23 26 38 bd
       0.2772134 0.10526798 0.06514069 -0.044958245
000300 38 a5 49 bc 29 d1 36 3e c8 f0 d2 bd 97 a4 05 bd
       -0.012307458 0.17853226 -0.10299832 -0.03262767
000310 7c e2 50 3d 62 ab 31 3d 65 2e f3 bd 56 5a 8c bd
       0.050997242 0.043376334 -0.118740834 -0.06853168
000320 6f 1b ef 3d f8 30 d5 3d dc 38 ca bd 72 6b a4 bc
       0.116751544 0.10409731 -0.09874126 -0.020070765
000330 95 81 bd 3d 56 e3 72 3e 24 7f 14 3e de 7c 80 bd
       0.092532314 0.23719534 0.14501625 -0.062738165
000340 86 e6 fe 3d 21 dd 36 3e 99 ba 3c 3d 15 a7 a0 bd
       0.124463126 0.17857791 0.04607639 -0.07844368
000350 94 42 d3 bd 25 0f 73 3d be c5 1b be 3c a4 a7 bd
       -0.10315433 0.059340615 -0.15212151 -0.08185622
000360 00 01 91 bd e3 75 91 3c e8 6c a2 bd 5f c4 38 3e
       -0.07080269 0.017756408 -0.079309285 0.1804366
000370 0b 63 41 3e 87 7f 31 bc fa f9 c3 3d d1 88 14 be
       0.18885438 -0.010833628 0.095691636 -0.14505316
000380 a1 1f ed 3d 00 fc 42 bc c3 66 a0 be ca 70 bf 3c
       0.11578298 -0.011900902 -0.313284 0.023369212
000390 cf 29 b0 3d 1c 4c eb 3b 37 26 1d bd 87 6e 98 3d
       0.08601724 0.007180704 -0.038366523 0.074429564
0003a0 d2 b4 35 3e 42 01 1e bd c4 91 c3 3d 06 66 b1 3d
       0.17744759 -0.03857542 0.09549287 0.086620376
0003b0 da 31 2d be 52 3d e0 3c 39 b7 f5 bc dd ef df bd
       -0.16913548 0.02737299 -0.029994594 -0.10934422
0003c0 c0 a9 18 be 8a 50 53 be fc 92 1d 3e d4 e7 00 be
       -0.14908504 -0.20636192 0.15388101 -0.12588435
0003d0 75 df b0 3d fb 6c a1 3d 61 d5 24 bd 3a 76 88 3d
       0.08636371 0.078821145 -0.040242556 0.06663175
0003e0 b2 3e 4f be e3 80 2f 3e 8c d6 52 3d 27 0b 23 bd
       -0.2023876 0.1713901 0.05147414 -0.039805558
0003f0 41 23 31 3d 4b 77 54 be 2b 7f 4e be 7b b1 e7 bd
       0.04324651 -0.20748632 -0.20165698 -0.113131486

blocks.0.msa.proj.bias f4 [16]
000000 02 7e f7 bd f4 6e 2f 3d d3 c3 8c bd a7 61 8e bd
       -0.12084581 0.042830423 -0.06873288 -0.069522195
000010 e7 fd 0c 3e 6b 24 69 bd 9b bf d0 bd 55 7c 15 be
       0.13768731 -0.056919497 -0.10192796 -0.1459821
000020 52 2a 19 be b6 1a 19 be 55 fe 7e bd 29 30 cb 3b
       -0.1495755 -0.14951596 -0.06225427 0.0062008095
000030 d6 76 1d be 55 37 53 3e 4b 99 9b 3d 46 bf 7d bd
       -0.15377364 0.20626576 0.07597598 -0.06194999
