model.pt (torch, 53071 bytes, 42 tensors)

token_embedding_table.weight f4 [100, 16]
-0.86992353 -0.83391047 1.5943941 -0.17546697 0.4283985 -0.48542768 0.51900786 -0.12220805
-0.17962974 0.9067841 0.3212532 -0.65192187 -1.245799 -1.9207484 0.3638958 0.7962635
1.8927891 0.5107855 1.5914732 -0.4918512 -1.5317439 0.5020575 0.42075413 1.4526849
0.040045694 -0.38739106 0.6640229 1.6386591 -0.16509283 -0.7029028 1.5296292 -0.5847299
1.7348361 0.11488998 -1.0839199 1.4398388 0.6429135 -1.7460681 0.18293448 -0.9139134
0.25344816 0.67789996 -0.3800199 -0.86821413 0.6305615 -0.6164557 -1.0545826 0.6353814
-1.4155474 1.3504549 -0.036621533 1.6689293 -0.68298906 0.1320733 1.5700359 0.8816123
0.62527996 -0.22053872 -2.5826933 1.1679502 1.5196165 -1.2738878 -0.69972825 0.719115
-0.6608278 0.16227087 0.3174872 0.20198569 0.4437763 -0.15069571 -0.603055 -0.124346666
0.23503463 1.1320685 1.0351378 -1.7911041 -0.76768684 0.104604036 -2.198472 -0.44880122
0.1951485 0.5665075 0.56636643 1.0759293 -2.0342548 0.5048971 -0.6363466 0.1237543
-0.37594536 -0.2297254 0.39762628 -0.35088897 -1.7944012 0.63601935 -0.6654245 -0.4424072
-0.13506961 2.1768184 0.9264388 -0.1223283 1.4261599 0.89442945 0.2751489 -0.89320195
0.8606083 0.7022816 -0.83677244 0.17857179 -0.7356411 0.01160131 1.0114864 0.09638855
0.56924057 1.6498061 1.0051302 1.7244271 -0.037459187 -0.83844787 0.40111977 -0.15599306
-0.45689288 -1.6148703 1.1931628 -1.1672547 0.92650217 -0.45573387 -1.2404137 -0.24990562
-0.96198535 1.0682639 0.6091927 0.750229 1.7313933 -0.54018015 -0.589609 -0.7290677
-1.3515378 -1.1721662 0.34780422 1.1711164 -1.4061639 -0.23362271 -0.2978347 -0.7279162
-0.77222407 -0.55629957 -0.016290512 1.3681365 0.5114378 -1.7202442 0.5691721 1.147963
-0.31633162 -2.1950226 0.87903357 -0.07847835 -0.40198052 1.0120375 0.008287451 0.13280575
-0.15101358 0.3254812 0.63782924 -0.48222122 0.75772715 -2.3631995 -0.7252425 -1.7127942
0.28750467 -1.4557827 0.62587166 -0.6225328 -1.2186854 1.7392747 1.0398103 0.73395586
-0.23394862 -1.7255037 0.8172446 -1.6116649 1.6654272 0.08043067 -1.0307393 0.7812793
0.32562426 -0.52601004 -0.1337501 -0.19250575 -1.2988325 0.50156105 -0.392177 -1.106842
-1.1304992 -0.2810505 0.96359426 0.15438436 0.36988336 -0.999023 0.09726122 2.0825818
1.1806779 -0.051322583 1.0181701 -0.43907258 -0.196434 0.58959883 1.5951729 -0.3854135
-0.38603145 -1.0790402 -0.45148206 0.36628383 0.5685836 0.78692883 0.7661695 0.8605927
0.07879188 0.0010001016 0.8172669 0.5618313 0.7606202 1.6821151 -0.32770532 1.0287256
-1.7772853 0.91280544 -1.5973705 0.41931528 -0.31381994 -0.7677424 0.77403176 -0.05282334
0.29538435 0.7044596 0.56534857 -0.30447286 0.101274766 -0.73187536 1.5734489 0.8100172
1.531513 1.2477838 -1.2082939 -1.6356192 1.3908279 -0.9395573 0.6632542 -0.7437009
1.166072 0.26839325 0.49176502 -0.52332515 0.16893536 -2.113127 0.81179786 -0.9288681
00000000: 4fb3 5ebf 287b 55bf 1b15 cc3f 9dad 33be
00000010: 0c57 db3e fa89 f8be b3dd 043f 3748 fabd
00000020: dcf0 37be 0123 683f 4d7b a43e 5ae4 26bf
00000030: 5776 9fbf 15db f5bf 8d50 ba3e edd7 4b3f
00000040: ea46 f23f d7c2 023f 65b5 cb3f ecd3 fbbe
00000050: 2f10 c4bf d786 003f 166d d73e 94f1 b93f
00000060: f406 243d 1f58 c6be 68fd 293f 95bf d13f
00000070: 180e 29be 70f1 33bf e4ca c33f dcb0 15bf
00000080: 1c0f de3f 704b eb3d e3bd 8abf a34c b83f
00000090: fb95 243f 297f dfbf 2d53 3b3e 3bf6 69bf
000000a0: f5c3 813e da8a 2d3f f891 c2be 4843 5ebf
000000b0: 7a6c 213f 0ad0 1dbf 90fc 86bf 5ba8 223f
000000c0: a830 b5bf b5db ac3f 7600 16bd 7a9f d53f
000000d0: 5fd8 2ebf 393e 073e f0f6 c83f 58b1 613f
000000e0: 5912 203f e7d4 61be d94a 25c0 647f 953f
000000f0: cb82 c23f c10e a3bf 6421 33bf ec17 383f
00000100: 032c 29bf 562a 263e af8d a23e 56d5 4e3e
00000110: a636 e33e fa4f 1abe d061 1abf 77a9 febd
00000120: ebac 703e 9fe7 903f 657f 843f e642 e5bf
00000130: 2087 44bf a43a d63d c4b3 0cc0 46c9 e5be
00000140: 02d5 473e a306 113f 64fd 103f 0db8 893f
00000150: 3b31 02c0 f040 013f 9ce7 22bf e572 fd3d
00000160: e97b c0be 233d 6bbe ac95 cb3e b8a7 b3be
00000170: f0ae e5bf 2ad2 223f 4359 2abf 3283 e2be
00000180: b04f 0abe fe50 0b40 182b 6d3f 4287 fabd
00000190: 688c b63f 54f9 643f 51e0 8c3e e2a8 64bf
000001a0: d350 5c3f bac8 333f b836 56bf 86db 363e
000001b0: fa52 3cbf 6c13 3e3c 6378 813f 5c67 c53d
000001c0: c0b9 113f d92c d33f 1ba8 803f 07ba dc3f
000001d0: ce6e 19bd 85a4 56bf 925f cd3e a5bc 1fbe
000001e0: dded e9be 12b4 cebf 8fb9 983f 9a68 95bf
000001f0: 3f2f 6d3f f355 e9be e0c5 9ebf 42e7 7fbe
00000200: ac44 76bf dfbc 883f 0ef4 1b3f 020f 403f
00000210: 4c9e dd3f 3f49 0abf 9ef0 16bf 2ea4 3abf
00000220: 31ff acbf 8b09 96bf 6513 b23e 24e7 953f
00000230: 2efd b3bf cb3a 6fbe ca7d 98be b758 3abf
00000240: 7ab0 45bf a669 0ebf ae73 85bc 191f af3f
00000250: 96ed 023f f630 dcbf 43b5 113f 74f0 923f
00000260: 38f6 a1be 407b 0cc0 5808 613f 42b9 a0bd
00000270: 64d0 cdbe 728a 813f 17c8 073c 3bfe 073e
00000280: 4ea3 1abe 79a5 a63e c748 233f b3e5 f6be
00000290: 68fa 413f a93e 17c0 7ea9 39bf d73c dbbf
000002a0: d033 933e 1657 babf 2039 203f 4f5e 1fbf
000002b0: e2fd 9bbf 8ea0 de3f 8118 853f 88e4 3b3f
000002c0: 3a90 6fbe 4edd dcbf f136 513f 094b cebf
000002d0: b82c d53f d6b8 a43d 44ef 83bf ec01 483f
000002e0: 39b8 a63e 98a8 06bf c9f5 08be 3a20 45be
000002f0: 2540 a6bf 4e66 003f 6ccb c8be 00ad 8dbf
00000300: 33b4 90bf dae5 8fbe 1dae 763f ef16 1e3e
00000310: 5a61 bd3e f9bf 7fbf e430 c73d 0549 0540
00000320: 7420 973f a137 52bd 6653 823f 1fce e0be
00000330: ff25 49be f3ef 163f a02e cc3f eb54 c5be
00000340: eaa5 c5be fd1d 8abf a828 e7be 8e89 bb3e
00000350: b28e 113f 2b74 493f af23 443f ce4f 5c3f
00000360: a35d a13d d715 833a 6738 513f 2dd4 0f3f
00000370: 01b8 423f 8c4f d73f fec8 a7be 48ad 833f
00000380: 167e e3bf 9ead 693f a376 ccbf 7eb0 d63e
00000390: 02ad a0be c48a 44bf f226 463f 495d 58bd
000003a0: 9e3c 973e 7757 343f afba 103f dee3 9bbe
000003b0: 2569 cf3d 2f5c 3bbf c666 c93f 4a5d 4f3f
000003c0: 9e08 c43f 61b7 9f3f 60a9 9abf f85b d1bf
000003d0: a606 b23f d486 70bf 07cb 293f 2f63 3ebf
000003e0: d941 953f d76a 893e a0c8 fb3e a3f8 05bf
000003f0: 64fd 2c3e 793d 07c0 fcd1 4f3f 4dca 6dbf

position_embedding_table.weight f4 [10, 16]
0.16618283 -0.1504582 -0.4242167 1.4552231 -0.4265417 -0.09073404 -1.3442806 0.4745005
-0.39396593 -0.15934716 0.081716396 -0.19088258 0.24294151 -0.111658625 1.1533045 -2.1204054
-0.57459766 0.51156586 -0.96035326 -0.4327495 0.69339913 0.27245712 -0.17314953 0.08647842
-0.12041423 -0.8677013 -0.32537302 0.44514897 0.14004323 0.9768518 -1.5601683 0.38125739
0.61348397 0.9040575 0.1350021 0.9778559 0.20755056 0.06493297 -1.5503747 1.007115
0.095601514 0.061962485 -0.5993126 0.6505403 0.5637159 0.23038332 1.5315332 -0.4156564
-0.026425276 0.016625324 0.52846587 -0.6567144 -0.3521729 0.7206124 0.6609511 -0.61943394
-0.47430688 0.72301555 1.5460526 1.4530079 -0.0014795262 0.47759008 -1.7487593 0.12910637
0.07429817 -0.32898095 0.035883963 0.16392098 -0.5695919 0.08731495 -0.89600843 0.13739504
-0.7240795 0.31579405 -0.10029447 0.6516591 -0.08885094 -0.19752634 0.82487035 -0.76722765
-0.011655072 0.3619919 -0.2292074 -0.7001071 0.28537977 -0.16609898 -0.5020018 0.67505234
-0.78088635 -1.2805129 -1.1434103 1.1851189 -0.6700144 0.047862485 -0.7814682 -0.2147636
0.04640557 -0.70473516 0.3015521 -1.0868237 -0.95377904 0.15552044 -0.013837844 0.23064157
-0.9637559 1.2254224 0.12942773 0.31875962 -0.102017105 -0.14695083 -0.42442647 -1.092248
-0.2680141 -1.2930114 -0.22621566 -0.031548534 -1.1541088 -0.77612823 -0.4737026 0.0450963
-1.0305741 1.807308 0.35391197 -0.5657282 0.24830605 -0.15663849 1.2292447 -1.1013237
-0.8314008 -0.52007556 -1.1668472 -0.42833024 -0.14591624 0.61702526 -0.07428235 -0.4313776
-0.42321932 0.2776143 0.040769346 -0.18444002 0.02890893 0.7736577 -1.0672176 -0.73091257
0.63264716 -0.24650368 1.3748127 0.24843875 -0.1650021 2.6371613 -0.3648338 -0.8682297
-0.074541554 1.0823843 0.6658709 1.6497452 -0.5216562 0.4830952 -0.75824183 -0.72342527
00000000: d52b 2a3e b711 1abe ee32 d9be c044 ba3f
00000010: ac63 dabe c5d2 b9bd 6311 acbf bbf1 f23e
00000020: e7b5 c9be e72b 23be ed5a a73d b976 43be
00000030: a9c5 783e 47ad e4bd 7b9f 933f b9b4 07c0
00000040: d518 13bf fbf5 023f b6d9 75bf 5891 ddbe
00000050: 9b82 313f 807f 8b3e 1c4e 31be 991b b13d
00000060: bc9b f6bd ac21 5ebf 4b97 a6be 91ea e33e
00000070: 7e67 0f3e f612 7a3f 98b3 c7bf 2b34 c33e
00000080: 490d 1d3f 5070 673f fe3d 0a3e c454 7a3f
00000090: 2288 543e 94fb 843d ae72 c6bf 25e9 803f
000000a0: baca c33d 60cc 7d3d 8d6c 19bf cf89 263f
000000b0: af4f 103f 9be9 6b3e 4809 c43f ead0 d4be
000000c0: d279 d8bc d531 883c 8a49 073f 6f1e 28bf
000000d0: 0250 b4be 0e7a 383f 1734 293f 3993 1ebf
000000e0: 5ad8 f2be 8c17 393f 0de5 c53f 2afc b93f
000000f0: a9ec c1ba b086 f43e 58d7 dfbf 7634 043e
00000100: a429 983d 3170 a8be 10fb 123d e7da 273e
00000110: c6d0 11bf 2ed2 b23d cf60 65bf 49b1 0c3e
00000120: 465d 39bf c2af a13e 3067 cdbd 21d3 263f
00000130: 7bf7 b5bd 5844 4abe b42a 533f 0869 44bf
00000140: eaf4 3ebc 0157 b93e 58b5 6abe 383a 33bf
00000150: 4c1d 923e da15 2abe 3183 00bf 3bd0 2c3f
00000160: 2be8 47bf d9e7 a3bf 455b 92bf fab1 973f
00000170: 1086 2bbf 740b 443d 4d0e 48bf fdea 5bbe
00000180: c413 3e3d 8669 34bf 0965 9a3e 0a1d 8bbf
00000190: dd2a 74bf c040 1f3e 20b8 62bc 4e2d 6c3e
000001a0: b5b8 76bf a4da 9c3f b488 043e 7634 a33e
000001b0: 58ee d0bd 477a 16be 6d4e d9be c8ce 8bbf
000001c0: 2539 89be 6681 a5bf 14a5 67be 0939 01bd
000001d0: d6b9 93bf 57b0 46bf 2689 f2be e6b6 383d
000001e0: dae9 83bf de55 e73f f333 b53e 90d3 10bf
000001f0: f143 7e3e d765 20be e457 9d3f 2df8 8cbf
00000200: afd6 54bf ac23 05bf 405b 95bf 1a4e dbbe
00000210: 116b 15be 5ef5 1d3f 5821 98bd 86dd dcbe
00000220: 34b0 d8be 7623 8e3e c2fd 263d d8dd 3cbe
00000230: 6cd2 ec3c 6e0e 463f 969a 88bf 161d 3bbf
00000240: 2af5 213f 766b 7cbe ddf9 af3f ba66 7e3e
00000250: 4ff6 28be 40c7 2840 7fcb babe 4d44 5ebf
00000260: 3ea9 98bd 928b 8a3f 8476 2a3f da2a d33f
00000270: 438b 05bf 4158 f73e 231c 42bf 6632 39bf

blocks.0.msa.heads.0.tril f4 [10, 10]
1.0 0.0 0.0 0.0 0.0 0.0 0.0 0.0
0.0 0.0 1.0 1.0 0.0 0.0 0.0 0.0
0.0 0.0 0.0 0.0 1.0 1.0 1.0 0.0
0.0 0.0 0.0 0.0 0.0 0.0 1.0 1.0
1.0 1.0 0.0 0.0 0.0 0.0 0.0 0.0
1.0 1.0 1.0 1.0 1.0 0.0 0.0 0.0
0.0 0.0 1.0 1.0 1.0 1.0 1.0 1.0
0.0 0.0 0.0 0.0 1.0 1.0 1.0 1.0
1.0 1.0 1.0 0.0 0.0 0.0 1.0 1.0
1.0 1.0 1.0 1.0 1.0 1.0 0.0 0.0
1.0 1.0 1.0 1.0 1.0 1.0 1.0 1.0
1.0 0.0 1.0 1.0 1.0 1.0 1.0 1.0
1.0 1.0 1.0 1.0
00000000: 0000 803f 0000 0000 0000 0000 0000 0000
00000010: 0000 0000 0000 0000 0000 0000 0000 0000
00000020: 0000 0000 0000 0000 0000 803f 0000 803f
00000030: 0000 0000 0000 0000 0000 0000 0000 0000
00000040: 0000 0000 0000 0000 0000 0000 0000 0000
00000050: 0000 803f 0000 803f 0000 803f 0000 0000
00000060: 0000 0000 0000 0000 0000 0000 0000 0000
00000070: 0000 0000 0000 0000 0000 803f 0000 803f
00000080: 0000 803f 0000 803f 0000 0000 0000 0000
00000090: 0000 0000 0000 0000 0000 0000 0000 0000
000000a0: 0000 803f 0000 803f 0000 803f 0000 803f
000000b0: 0000 803f 0000 0000 0000 0000 0000 0000
000000c0: 0000 0000 0000 0000 0000 803f 0000 803f
000000d0: 0000 803f 0000 803f 0000 803f 0000 803f
000000e0: 0000 0000 0000 0000 0000 0000 0000 0000
000000f0: 0000 803f 0000 803f 0000 803f 0000 803f
00000100: 0000 803f 0000 803f 0000 803f 0000 0000
00000110: 0000 0000 0000 0000 0000 803f 0000 803f
00000120: 0000 803f 0000 803f 0000 803f 0000 803f
00000130: 0000 803f 0000 803f 0000 0000 0000 0000
00000140: 0000 803f 0000 803f 0000 803f 0000 803f
00000150: 0000 803f 0000 803f 0000 803f 0000 803f
00000160: 0000 803f 0000 0000 0000 803f 0000 803f
00000170: 0000 803f 0000 803f 0000 803f 0000 803f
00000180: 0000 803f 0000 803f 0000 803f 0000 803f

blocks.0.msa.heads.0.key.weight f4 [8, 16]
0.17410186 -0.03153896 0.21525015 0.06586044 0.21431021 0.35295933 0.011860861 0.26022464
0.092858575 0.32382372 -0.09684795 0.20435618 -0.008087911 0.18420123 0.2429522 0.10779328
0.014163555 0.048010036 -0.09386182 0.025534254 -0.12061606 0.25714946 0.0041942378 -0.12347052
0.16729376 -0.1386627 0.10648608 -0.026784789 -0.074149445 0.07834841 -0.20512663 -0.21343349
0.2859942 -0.057693154 0.36837968 0.08382793 -0.19427007 0.19172949 0.1826658 0.2132214
0.044144817 0.06592772 0.2995649 -0.08289316 0.15935795 -0.15851216 0.21631697 -0.111282706
-0.018591497 0.14867927 -0.19330275 -0.049316175 -0.1272819 -0.34475356 -0.1333476 0.014066638
-0.14497472 -0.15518221 -0.4170118 0.1552503 0.0369805 -0.17635632 -0.27994993 0.08997088
-0.097957924 -0.1451875 0.02020554 -0.21424046 0.089162484 0.1709754 -0.06379463 -0.1040755
0.21288215 0.3186305 -0.12253444 0.15979207 0.1956088 0.050801437 -0.1879445 -0.09474416
-0.02678923 0.004784847 0.15545005 -0.08729428 -0.13496462 0.12093539 -0.14428595 -0.2789631
0.0144652035 -0.06411453 -0.22350591 0.11838581 -0.13952021 0.0032284083 0.1438652 -0.08659999
0.020589488 -0.15070176 -0.21925774 -0.12029352 0.28478867 -0.26901746 -0.16421454 -0.17775789
0.052565437 0.26737675 -0.1549336 -0.10799536 0.10976464 0.07973812 0.26840368 -0.012822486
0.25402606 0.060789656 0.07426284 0.052275173 -0.098046586 -0.24733312 -0.09379392 0.059786156
0.041418348 -0.35606018 0.21636555 0.1247351 -0.065196835 -0.16211437 -0.117167525 0.09278011
00000000: c247 323e ff2e 01bd 896a 5c3e d7e1 863d
00000010: 2374 5b3e 16b7 b43e 0f54 423c 2a3c 853e
00000020: a32c be3d 39cc a53e 3858 c6bd bf42 513e
00000030: 2883 04bc 3f9f 3c3e 76c8 783e b9c2 dc3d
00000040: 410e 683c 2ca6 443d a03a c0bd 362d d13c
00000050: 8e05 f7bd 18a9 833e d16f 893b 1dde fcbd
00000060: 0e4f 2b3e 98fd 0dbe 6015 da3d c66b dbbc
00000070: aadb 97bd 2275 a03d b70c 52be 4f8e 5abe
00000080: d56d 923e a84f 6cbd 439c bc3e faad ab3d
00000090: bcee 46be bc54 443e be0c 3b3e b656 5a3e
000000a0: 32d1 343d 1d05 873d 9260 993e e4c3 a9bd
000000b0: bb2e 233e 0351 22be 3282 5d3e 30e8 e3bd
000000c0: 324d 98bc 613f 183e 28f1 45be c2ff 49bd
000000d0: 3056 02be 8a83 b0be 468c 08be c277 663c
000000e0: 4174 14be 16e8 1ebe 9282 d5be eff9 1e3e
000000f0: dd78 173d c096 34be 9955 8fbe a742 b83d
00000100: 2a9e c8bd 08ac 14be 1786 a53c da61 5bbe
00000110: d29a b63d 2d14 2f3e c2a6 82bd 8925 d5bd
00000120: c7fd 593e 8923 a33e 56f3 fabd 88a0 233e
00000130: ac4d 483e 2b15 503d 8674 40be 3a09 c2bd
00000140: 1675 dbbc 35ca 9c3b 4c2e 1f3e 58c7 b2bd
00000150: 2a34 0abe f9ac f73d b2bf 13be 40d4 8ebe
00000160: 76ff 6c3c 7b4e 83bd bcde 64be 4274 f23d
00000170: 63de 0ebe b493 533b 6651 133e 565b b1bd
00000180: 49ab a83c 9051 1abe 1a85 60be 735c f6bd
00000190: d2cf 913e a8bc 89be db27 28be 2a06 36be
000001a0: db4e 573d 9be5 883e eaa6 1ebe ac2c ddbd
000001b0: 49cc e03d bd4d a33d 356c 893e 6815 52bc
000001c0: b40f 823e 93fe 783d 1e17 983d 7e1e 563d
000001d0: a6cc c8bd e544 7dbe 0717 c0bd 54e2 743d
000001e0: 49a6 293d 854d b6be ee8e 5d3e 1e75 ff3d
000001f0: eb85 85bd 4f01 26be 87f5 efbd 8003 be3d

blocks.0.msa.heads.0.query.weight f4 [8, 16]
0.30900803 -0.022450829 0.2903525 0.09032318 0.11938773 0.34458038 -0.14609325 0.2878755
0.22653556 0.27967492 -0.19244012 0.1637662 0.003265795 0.22306912 0.16577153 0.0013730192
0.03906434 -0.07735626 -0.0817754 -0.06666892 -0.11780225 0.18763444 -0.12433343 -0.28413132
0.1786634 -0.1497628 0.07887873 -0.1190664 -0.216881 -0.019096028 0.020884907 -0.18859603
0.2598827 -0.057530254 0.20631449 -0.019915592 -0.1403256 0.08772224 0.21412593 0.077995546
0.29137355 0.19316112 0.10480909 -0.012219717 -0.03163966 -0.19842662 0.2557147 0.13568743
0.12200444 0.0320106 -0.07098659 0.02804974 -0.2719133 -0.36854574 -0.19896744 -0.039335173
-0.24157825 -0.18274073 -0.4138342 0.03731931 -0.12271182 -0.3278425 -0.17467953 0.09942805
-0.055807136 -0.05776319 -0.012114871 -0.07725684 0.06648815 0.24486105 -0.27156448 0.09973537
0.030081507 0.10235311 0.09148926 0.1405128 0.1226108 0.20552118 -0.13926813 -0.31257528
0.10180336 -0.03858918 0.07806148 -0.047137763 -0.09268009 0.21237235 -0.20825242 -0.20485587
-0.04101872 -0.0685517 -0.29668006 0.14281376 -0.024523385 -0.0072653145 0.0962753 -0.18390074
0.18710722 -0.15168233 -0.05753789 0.11572182 0.014796365 -0.14552666 -0.070878625 -0.2177365
0.11545281 0.24509206 -0.117649004 -0.12991752 0.026077176 -0.104646035 0.23881376 0.1392514
0.1382974 0.019843902 0.14327098 -0.1757091 -0.07397263 -0.090716235 -0.20647152 -0.017582707
-0.0050323573 -0.22748715 0.1016083 0.053462286 0.047400188 -0.05608341 -0.10202585 -0.013622048
00000000: 4d36 9e3e cdea b7bc 15a9 943e 5cfb b83d
00000010: 8e81 f43d d76c b03e 7899 15be 6b64 933e
00000020: f0f8 673e 8d31 8f3e 060f 45be 54b2 273e
00000030: f306 563b 3b6c 643e 03c0 293e e1f6 b33a
00000040: ee01 203d f56c 9ebd dc79 a7bd b789 88bd
00000050: 4e42 f1bd 3e23 403e 86a2 febd a979 91be
00000060: 8af3 363e 6b5b 19be 2c8b a13d 16d9 f3bd
00000070: 0e16 5ebe 466f 9cbc d316 ab3c 511f 41be
00000080: 580f 853e d8a4 6bbd 1b44 533e 0626 a3bc
00000090: 84b1 0fbe b8a7 b33d d443 5b3e 21bc 9f3d
000000a0: ea2e 953e 07cc 453e 26a6 d63d 3535 48bc
000000b0: 9798 01bd 5930 4bbe 0aed 823e a5f1 0a3e
000000c0: 77dd f93d 8c1d 033d 6b61 91bd 91c8 e53c
000000d0: 3838 8bbe 07b2 bcbe 1fbe 4bbe eb1d 21bd
000000e0: 4a60 77be 6320 3bbe 14e2 d3be 22dc 183d
000000f0: 5650 fbbd f9da a7be 31df 32be efa0 cb3d
00000100: 0696 64bd 1899 6cbd 747d 46bc d638 9ebd
00000110: f02a 883d dbbc 7a3e 800a 8bbe 0f42 cc3d
00000120: 7e6d f63c 829e d13d b95e bb3d 96e2 0f3e
00000130: 5f1b fb3d 2574 523e 4e9c 0ebe de09 a0be
00000140: 487e d03d b00f 1ebd b2de 9f3d 8713 41bd
00000150: 0fcf bdbd 2378 593e 1f40 55be bdc5 51be
00000160: 3f03 28bd d564 8cbd 73e6 97be c53d 123e
00000170: 44e5 c8bc e011 eebb fc2b c53d 7a50 3cbe
00000180: 0999 3f3e 9d52 1bbe daac 6bbd 90ff ec3d
00000190: 746c 723c f104 15be d028 91bd 51f6 5ebe
000001a0: 8672 ec3d 6af9 7a3e f6f1 f0bd 1909 05be
000001b0: cd9f d53c a950 d6bd 988b 743e eb97 0e3e
000001c0: d59d 0d3e ae8f a23c a1b5 123e 16ed 33be
000001d0: f67e 97bd 6fc9 b9bd 456d 53be 9c09 90bc
000001e0: 79e6 a4bb 64f2 68be 0318 d03d 45fb 5a3d
000001f0: b326 423d b8b7 65bd eef2 d0bd 032f 5fbc

blocks.0.msa.heads.0.value.weight f4 [8, 16]
-0.16133584 0.15021352 -0.102272704 0.20555626 -0.101190194 -0.117976956 -0.23109974 -0.04600517
-0.04382765 -0.003128963 0.02718538 0.093716286 -0.02465923 -0.11204601 -0.05141525 -0.11537006
-0.078967474 0.038913894 0.11139341 -0.31959686 -0.0813627 0.14292878 0.121135145 -0.27912715
0.084968045 0.08069507 0.118013024 0.14466369 0.08816066 0.11332243 -0.10793248 0.041541122
0.12975118 0.16334087 -0.20877583 0.121134005 0.13422449 -0.3011119 0.08119215 -0.082483746
-0.06441374 -0.20127104 -0.12567689 -0.12678431 -0.13222568 -0.0016029004 -0.13535158 0.098062694
0.14369527 -0.12159517 0.12652329 0.09637886 0.11862065 0.12717807 0.18338105 0.22191875
-0.010776845 0.17187276 -0.04489862 -0.13827954 -0.004417784 0.17963563 0.24067953 0.042385355
-0.040517993 0.061428934 -0.045715127 0.12114918 0.038087048 -0.23289804 -0.13515866 0.12944888
0.006161095 -0.1825096 -0.27207512 0.10847417 -0.062056117 0.060308404 0.105586655 -0.03181416
0.008081054 0.05043038 0.16895431 -0.14081644 0.025654534 0.023298126 0.06486985 -0.027740862
0.18828247 0.046428274 -0.1801564 0.1920036 -0.07203733 0.11514205 0.11555919 0.18892266
-0.046666034 -0.029310396 0.04000653 0.26872727 0.07810292 0.01957116 -0.01162303 0.16544288
-0.1680465 0.19196136 0.15900789 -0.054713923 -0.06529203 -0.026714858 0.18634701 -0.13683967
-0.025692489 0.099149294 0.03090004 -0.019513 0.039065253 -0.13882025 -0.08601221 0.052749228
-0.08709767 -0.17979735 -0.22281812 0.058336016 0.13104329 0.14982799 -0.07218785 0.07824966
00000000: 3935 25be 93d1 193e 5a74 d1bd 577d 523e
00000010: ce3c cfbd e79d f1bd 69a5 6cbe eb6f 3cbd
00000020: 9f84 33bd 4a0f 4dbb e0b3 de3c 53ee bf3d
00000030: 2702 cabc 6178 e5bd cc98 52bd 2347 ecbd
00000040: b3b9 a1bd 2d64 1f3d 3a22 e43d 33a2 a3be
00000050: 7da1 a6bd ec5b 123e b415 f83d c1e9 8ebe
00000060: ba03 ae3d 7543 a53d d0b0 f13d b822 143e
00000070: 938d b43d 9715 e83d b40b ddbd 0627 2a3d
00000080: 7edd 043e d442 273e 55c9 55be 1b15 f83d
00000090: 2572 093e 572b 9abe 1248 a63d 3ded a8bd
000000a0: 5aeb 83bd ff19 4ebe 71b1 00be bfd3 01be
000000b0: 2b66 07be 6a18 d2ba 9b99 0abe 18d5 c83d
000000c0: da24 133e e306 f9bd 528f 013e 4862 c53d
000000d0: 62ef f23d f83a 023e 3ec8 3b3e ab3e 633e
000000e0: 5d91 30bc 6aff 2f3e 9ee7 37bd 2799 0dbe
000000f0: 0fc3 90bb 67f2 373e b274 763e 449c 2d3d
00000100: 32f6 25bd e89c 7b3d c93f 3bbd 101d f83d
00000110: 2a01 1c3d d37c 6ebe 0867 0abe 3f8e 043e
00000120: 03e3 c93b cce3 3abe 6e4d 8bbe b527 de3d
00000130: 8e2e 7ebd f205 773d d13d d83d 914f 02bd
00000140: 6666 043c 1690 4e3d 5c02 2d3e 2f32 10be
00000150: 7529 d23c b6db be3c 7cda 843d ce40 e3bc
00000160: 1fcd 403e 932b 3e3d eb7a 38be 979c 443e
00000170: 4f88 93bd 98cf eb3d 4caa ec3d f174 413e
00000180: e224 3fbd 5b1c f0bc e3dd 233d 9f96 893e
00000190: 6cf4 9f3d b353 a03c 856e 3ebc dc69 293e
000001a0: 6214 2cbe 8591 443e f7d2 223e b51b 60bd
000001b0: d4b7 85bd 1ed9 dabc c0d1 3e3e b31f 0cbe
000001c0: 0e79 d2bc c90e cb3d 1522 fd3c bad9 9fbc
000001d0: e302 203d e526 0ebe 2b27 b0bd 930f 583d
000001e0: 4360 b2bd cc1c 38be 6f2a 64be bff1 6e3d
000001f0: 3630 063e 826c 193e 39d7 93bd 5c41 a03d

blocks.0.msa.heads.1.tril f4 [10, 10]
1.0 0.0 0.0 0.0 0.0 0.0 0.0 0.0
0.0 0.0 1.0 1.0 0.0 0.0 0.0 0.0
0.0 0.0 0.0 0.0 1.0 1.0 1.0 0.0
0.0 0.0 0.0 0.0 0.0 0.0 1.0 1.0
1.0 1.0 0.0 0.0 0.0 0.0 0.0 0.0
1.0 1.0 1.0 1.0 1.0 0.0 0.0 0.0
0.0 0.0 1.0 1.0 1.0 1.0 1.0 1.0
0.0 0.0 0.0 0.0 1.0 1.0 1.0 1.0
1.0 1.0 1.0 0.0 0.0 0.0 1.0 1.0
1.0 1.0 1.0 1.0 1.0 1.0 0.0 0.0
1.0 1.0 1.0 1.0 1.0 1.0 1.0 1.0
1.0 0.0 1.0 1.0 1.0 1.0 1.0 1.0
1.0 1.0 1.0 1.0
00000000: 0000 803f 0000 0000 0000 0000 0000 0000
00000010: 0000 0000 0000 0000 0000 0000 0000 0000
00000020: 0000 0000 0000 0000 0000 803f 0000 803f
00000030: 0000 0000 0000 0000 0000 0000 0000 0000
00000040: 0000 0000 0000 0000 0000 0000 0000 0000
00000050: 0000 803f 0000 803f 0000 803f 0000 0000
00000060: 0000 0000 0000 0000 0000 0000 0000 0000
00000070: 0000 0000 0000 0000 0000 803f 0000 803f
00000080: 0000 803f 0000 803f 0000 0000 0000 0000
00000090: 0000 0000 0000 0000 0000 0000 0000 0000
000000a0: 0000 803f 0000 803f 0000 803f 0000 803f
000000b0: 0000 803f 0000 0000 0000 0000 0000 0000
000000c0: 0000 0000 0000 0000 0000 803f 0000 803f
000000d0: 0000 803f 0000 803f 0000 803f 0000 803f
000000e0: 0000 0000 0000 0000 0000 0000 0000 0000
000000f0: 0000 803f 0000 803f 0000 803f 0000 803f
00000100: 0000 803f 0000 803f 0000 803f 0000 0000
00000110: 0000 0000 0000 0000 0000 803f 0000 803f
00000120: 0000 803f 0000 803f 0000 803f 0000 803f
00000130: 0000 803f 0000 803f 0000 0000 0000 0000
00000140: 0000 803f 0000 803f 0000 803f 0000 803f
00000150: 0000 803f 0000 803f 0000 803f 0000 803f
00000160: 0000 803f 0000 0000 0000 803f 0000 803f
00000170: 0000 803f 0000 803f 0000 803f 0000 803f
00000180: 0000 803f 0000 803f 0000 803f 0000 803f

blocks.0.msa.heads.1.key.weight f4 [8, 16]
0.12110534 0.22721255 -0.024573777 -0.07166268 0.2337141 0.1427536 0.21114299 0.35425952
0.15838453 -0.035326112 -0.04121655 -0.04560458 -0.007270534 -0.011991092 -0.2283715 -0.05440063
0.26717442 0.020348543 -0.038386792 0.26511198 -0.046130817 -0.10092754 -0.056629553 0.19728372
-0.022235855 -0.033510022 0.02418745 0.23399019 0.01219071 -0.3179765 0.11742724 0.21996081
0.16585277 -0.05011305 -0.021197286 -0.05211009 -0.21544869 0.07787411 0.18609473 0.0005019357
0.00963516 -0.18068388 0.30237913 0.080265276 0.10364537 0.178826 -0.09143167 -0.07969129
0.013909601 -0.055182777 0.08539969 -0.15683872 -0.19185357 0.13902976 -0.06081353 0.019103289
-0.28012434 -0.32146496 0.042049367 -0.09566705 -0.06460439 -0.14810006 -0.31681296 0.043529052
0.19304581 -0.031539846 -0.1633805 0.19497652 0.33243912 -0.118114516 0.09802036 -0.036802165
0.30640262 -0.08864997 0.0035503344 -0.077896446 0.123850055 0.074848756 -0.10807565 -0.013210637
0.0018800225 0.26828882 -0.4276142 0.029186748 0.25452334 0.24152882 0.21641341 0.10697999
0.17227522 0.2011043 -0.033421572 -0.06785179 0.44334462 -0.039701622 0.23208456 0.0279967
-0.065151766 0.08656295 -0.09737725 -0.12856115 0.06144841 -0.11134477 0.03664618 -0.15736449
0.16714586 -0.11850636 -0.08862011 -0.04519528 -0.115162194 0.09862561 0.17715038 -0.032114875
0.06608337 0.16877344 0.17792863 0.01743784 -0.23582184 -0.031517345 -0.1170288 -0.29489034
0.16398647 0.38373646 -0.05822633 -0.14723514 0.09902734 0.15560508 0.016913032 0.05292539
00000000: 1406 f83d 68aa 683e f24e c9bc e2c3 92bd
00000010: c052 6f3e 002e 123e de35 583e 8161 b53e
00000020: 8e2f 223e 1db2 10bd afd2 28bd decb 3abd
00000030: a93d eebb 4976 44bc 38da 69be 32d3 5ebd
00000040: 16cb 883e fdb1 a63c 783b 1dbd c2bc 873e
00000050: abf3 3cbd 19b3 cebd 64f4 67bd be04 4a3e
00000060: f827 b6bc ce41 09bd c224 c63c 209b 6f3e
00000070: 8bbb 473c d1cd a2be b17d f03d 683d 613e
00000080: 4fd5 293e 5743 4dbd eea5 adbc 6471 55bd
00000090: 959e 5cbe 767c 9f3d 9e8f 3e3e 5694 033a
000000a0: cadc 1d3c 3205 39be 70d1 9a3e 1f62 a43d
000000b0: 0644 d43d 2a1e 373e 8740 bbbd 3035 a3bd
000000c0: 18e5 633c 5607 62bd 08e6 ae3d 549a 20be
000000d0: 4375 44be d15d 0e3e 9c17 79bd 807e 9c3c
000000e0: 756c 8fbe 0e97 a4be f53b 2c3d 16ed c3bd
000000f0: 4e4f 84bd 8ba7 17be 4f35 a2be 854b 323d
00000100: cdad 453e ed2f 01bd 384d 27be eda7 473e
00000110: 7635 aa3e 06e6 f1bd e6be c83d debd 16bd
00000120: cee0 9c3e 1e8e b5bd baac 683b 2c88 9fbd
00000130: 19a5 fd3d 4e4a 993d c456 ddbd 6d71 58bc
00000140: 166b f63a 275d 893e 40f0 dabe 0c19 ef3c
00000150: e250 823e 5553 773e 7a9b 5d3e 5318 db3d
00000160: ea68 303e 49ee 4d3e 0fe5 08bd e1f5 8abd
00000170: 11fe e23e 2b9e 22bd 93a7 6d3e 5659 e53c
00000180: 4a6e 85bd ea47 b13d b96d c7bd 89a5 03be
00000190: 54b1 7b3d ba08 e4bd 4e1a 163d 2824 21be
000001a0: 4928 2b3e 76b3 f2bd 767e b5bd b01e 39bd
000001b0: 28da ebbd 39fc c93d e966 353e e38a 03bd
000001c0: b856 873d f2d2 2c3e ec32 363e cdd9 8e3c
000001d0: 487b 71be 5518 01bd ccac efbd defb 96be
000001e0: 12ec 273e 1b79 c43e bb7e 6ebd cfc4 16be
000001f0: d9ce ca3d f056 1f3e 338d 8a3c 4bc8 583d

blocks.0.msa.heads.1.query.weight f4 [8, 16]
0.1674191 0.18535888 0.08780755 0.2206088 0.14393336 0.16620585 -0.0039062244 0.37409458
-0.07424894 -0.10784793 0.17691839 -0.06180793 0.08202102 -0.00049534923 -0.17476085 -0.33647624
0.17690997 0.14322668 0.081578545 0.32093316 0.10903343 -0.026178282 0.2413542 0.0701832
-0.028970622 -0.062164813 -0.06610545 0.23094167 -0.037584506 -0.28735015 0.1836348 0.22299261
0.18569244 -0.08635244 0.030788759 0.20827709 -0.12027222 0.068886034 0.12149402 0.0028181237
0.10511541 -0.06733555 0.34961244 -0.113174096 0.1684021 -0.07272878 -0.09932617 -0.2323528
-0.089326516 0.210426 -0.029752584 -0.108896986 -0.2035055 -0.068322085 -0.102516815 -0.15148085
-0.047665633 -0.2070147 -0.0088001555 -0.09495232 -0.022413597 -0.16584477 -0.29944983 -0.14173272
0.13110419 -0.06860478 0.031631332 0.17613189 0.2858082 0.010279191 0.26013803 -0.08547659
0.4029782 -0.052757688 0.06755243 -0.1829952 -0.0794465 0.19835179 0.069670595 0.015509365
0.010505847 0.25854045 -0.3404144 0.019898664 0.17670345 0.18650495 0.18411809 0.009011571
0.16847569 0.15777545 -0.0031740398 -0.025796888 0.43818763 0.009050702 0.14288208 0.08443661
-0.0064551895 0.18040293 -0.025929213 0.11158125 0.04093373 -0.106310934 -0.11473119 -0.22350408
0.11806521 -0.2302692 -0.13044302 -0.08288666 -0.011451768 -0.118463434 -0.0026448949 -0.17894137
0.12051556 0.28769037 0.14185037 -0.023308316 -0.27780592 -0.08904983 -0.004920372 -0.2855445
0.17551708 0.20484595 -0.048319176 -0.17656396 0.1559 0.15026084 -0.12326157 -0.103844166
00000000: ea6f 2b3e b8ce 3d3e 72d4 b33d 46e7 613e
00000010: 4463 133e de31 2a3e 92ff 7fbb 5389 bf3e
00000020: d40f 98bd 60df dcbd 182a 353e 502a 7dbd
00000030: a3fa a73d 53da 01ba 82f4 32be 9d46 acbe
00000040: e327 353e 04aa 123e a712 a73d 5a51 a43e
00000050: eb4c df3d d673 d6bc 8e25 773e 36bc 8f3d
00000060: cc53 edbc 88a0 7ebd 4b62 87bd f97b 6c3e
00000070: 36f2 19bd 8f1f 93be c30a 3c3e 2d58 643e
00000080: 2926 3e3e 8cd9 b0bd b538 fc3c 9746 553e
00000090: 4851 f6bd 1f14 8d3d dbd1 f83d 45b0 383b
000000a0: c046 d73d 39e7 89bd 6700 b33e d2c7 e7bd
000000b0: 9a71 2c3e d4f2 94bd 856b cbbd e4ed 6dbe
000000c0: d2f0 b6bd ea79 573e b1bb f3bc 6205 dfbd
000000d0: bf63 50be 73ec 8bbd 56f4 d1bd cc1d 1bbe
000000e0: 0a3d 43bd a9fb 53be 872e 10bc 5d76 c2bd
000000f0: b89c b7bc 36d3 29be 7d51 99be 6222 11be
00000100: 2d40 063e aa80 8cbd db8f 013d eb5b 343e
00000110: 7455 923e 0d6a 283c d030 853e 5a0e afbd
00000120: 2953 ce3e 7218 58bd ee58 8a3d 1863 3bbe
00000130: d9b4 a2bd bb1c 4b3e 75af 8e3d fe1a 7e3c
00000140: b720 2c3c 6a5f 843e cc4a aebe 8602 a33c
00000150: c0f1 343e 27fb 3e3e 7489 3c3e 45a5 133c
00000160: e484 2c3e e38f 213e 8d03 50bb ff53 d3bc
00000170: 215a e03e 6549 143c ae4f 123e 1aed ac3d
00000180: 0e86 d3bb 8cbb 383e 8069 d4bc b684 e43d
00000190: 20aa 273d 8cb9 d9bd 30f8 eabd 41de 64be
000001a0: 2ccc f13d b0cb 6bbe db92 05be 7bc0 a9bd
000001b0: 32a0 3bbc f59c f2bd f955 2dbb 683c 37be
000001c0: ddd0 f63d 274c 933e 3941 113e 15f1 bebc
000001d0: 943c 8ebe c25f b6bd 123b a1bb e432 92be
000001e0: c0ba 333e 23c3 513e 54ea 45bd 2fcd 34be
000001f0: 40a4 1f3e fadd 193e 9070 fcbd 40ac d4bd

blocks.0.msa.heads.1.value.weight f4 [8, 16]
-0.08968934 0.27032155 0.006663514 0.10296663 0.22308221 -0.07409272 -0.018543499 -0.017669814
0.1660595 0.11835942 0.16798964 0.20469514 0.18378532 -0.14742053 0.13671266 -0.10627692
-0.11190841 0.1450715 -0.049599506 -0.13504411 0.086666 0.1358297 0.1976305 0.13808657
0.16746359 0.06986548 -0.034245107 -0.086479045 -0.17637733 0.050371077 -0.1033064 0.24681512
0.0042353407 0.028361222 0.08938547 -0.35129955 -0.20384763 0.004315523 0.18111302 -0.14271328
0.0797448 -0.21017139 0.07720998 -0.08566884 0.12364062 0.21273382 0.071800336 -0.09625894
0.16167921 -0.047723368 -0.058614884 0.30421847 0.114150345 -0.24426049 -0.22891507 0.13117439
-0.0896808 -0.08809939 0.035476923 -0.051082663 0.090493254 -0.11097783 0.1424582 -0.1678343
0.0026332135 -0.056818638 0.025627825 0.13254543 -0.07387399 -0.109844685 0.19862658 0.028352566
0.054655008 -0.08278785 -0.12889901 0.12638539 -0.08843212 0.1579932 -0.10151565 0.098493
-0.07827779 0.14106849 0.1097562 -0.13461943 -0.1165375 -0.07668207 0.09925485 -0.07041703
0.008204987 -0.067951046 -0.14261933 -0.13099666 -0.09108459 0.1229768 0.027770184 0.12520511
0.1683346 0.026415443 -0.14710726 -0.07031691 -0.017353464 0.17090116 -0.052550893 -0.101345375
0.014668853 0.1310024 -0.11847017 -0.0691051 0.18875062 0.08713967 0.13547845 0.0133377
0.015737679 -0.12768891 0.1936299 -0.053894844 -0.18743804 -0.095649496 -0.13118744 -0.17356057
-0.15648761 0.08093884 -0.11786251 -0.026546188 -0.05130384 0.15820003 0.0774203 -0.0056604473
00000000: 0baf b7bd 9667 8a3e 9b59 da3b 2be0 d23d
00000010: aa6f 643e edbd 97bd 89e8 97bc 49c0 90bc
00000020: 800b 2a3e 6c66 f23d 7a05 2c3e 9a9b 513e
00000030: 3832 3c3e 68f5 16be 67fe 0b3e b7a7 d9bd
00000040: 3d30 e5bd a08d 143e da28 4bbd 0149 0abe
00000050: f27d b13d f116 0b3e a65f 4a3e 9166 0d3e
00000060: 937b 2b3e a215 8f3d 9944 0cbd ed1b b1bd
00000070: 429c 34be e751 4e3d 4e92 d3bd 1abd 7c3e
00000080: 9dc8 8a3b cb55 e83c bb0f b73d 89dd b3be
00000090: 6fbd 50be 3b69 8d3b b175 393e 6e23 12be
000000a0: 3e51 a33d 2b37 57be 4420 9e3d 2573 afbd
000000b0: 4b37 fd3d e5d6 593e 0e0c 933d 6823 c5bd
000000c0: 3c8f 253e 9479 43bd 2916 70bd 86c2 9b3e
000000d0: a8c7 e93d 6c1f 7abe b668 6abe 9452 063e
000000e0: 91aa b7bd 746d b4bd 4050 113d 0e3c 51bd
000000f0: 8754 b93d 5848 e3bd 90e0 113e c1dc 2bbe
00000100: fe91 2c3b a9ba 68bd 72f1 d13c fdb9 073e
00000110: 3f4b 97bd 40f6 e0bd c464 4b3e a443 e83c
00000120: eedd 5f3d ad8c a9bd 1afe 03be 2c6b 013e
00000130: e61b b5bd f8c8 213e 70e7 cfbd b3b6 c93d
00000140: 1b50 a0bd 4274 103e dcc7 e03d add9 09be
00000150: 36ab eebd 7d0b 9dbd 2046 cb3d ce36 90bd
00000160: 366e 063c eb29 8bbd cd0a 12be fd23 06be
00000170: 8f8a babd 43db fb3d 4c7e e33c c535 003e
00000180: e85f 2c3e 3365 d83c 49a3 16be 5002 90bd
00000190: da28 8ebc b700 2f3e 9b3f 57bd 2a8e cfbd
000001a0: a155 703c 7e25 063e 7da0 f2bd fa86 8dbd
000001b0: d847 413e 4976 b23d ddba 0a3e 5e86 5a3c
000001c0: 4eec 803c e2c0 02be eb46 463e d7c0 5cbd
000001d0: c2ef 3fbe e2e3 c3bd 0056 06be ddb9 31be
000001e0: 4a3e 20be 43c3 a53d e661 f1bd 6477 d9bc
000001f0: fa23 52bd 30ff 213e 898e 9e3d 467b b9bb

blocks.0.msa.proj.weight f4 [16, 16]
-0.09239173 -0.070435 0.18635769 -0.14224769 -0.14375558 0.07764915 -0.046836685 0.05864453
-0.00898026 -0.08061812 0.06684091 -0.1250516 0.026283206 0.067036815 0.057551753 -0.11035844
0.09281122 0.020915188 0.09226115 0.049192533 -0.1253597 0.0840026 0.0105401175 -0.15468507
-0.017019743 -0.046061486 -0.024633203 -0.150405 -0.120193236 0.11450862 -0.20742957 0.15466443
-0.083799504 -0.16320033 0.16555957 -0.25083816 0.095892616 -0.09573506 -0.11945042 0.08391008
0.0058366433 -0.06743413 0.12690759 -0.018469382 -0.13936476 0.15267715 -0.17892654 0.19572335
0.17546712 0.18542257 0.05170788 -0.124979444 -0.0032891294 0.2102364 -0.30976117 0.09245378
-0.10835384 0.03392314 0.09243987 -0.2857389 -0.028309185 0.18207003 -0.16116391 -0.14268728
0.07458393 -0.029338198 -0.123706125 -0.11645041 -0.016724234 0.14612086 0.13785517 0.018367084
-0.047667563 0.107091025 0.08496752 0.07683618 -0.046430662 -0.13597517 0.036538552 -0.0375171
0.049492802 -0.31763858 0.05211818 -0.21755874 0.23030078 0.013455959 -0.1737767 0.062128987
0.28189465 0.006071981 -0.08096262 -0.151356 -0.08143178 -0.07414735 0.075392276 0.15296412
0.060227063 -0.20131029 -0.1363349 0.33354497 -0.07919074 0.16567495 0.032247797 0.05483785
0.20088425 -0.0983671 -0.16026726 0.23821093 0.18426402 0.10388307 0.118059695 -0.37672493
0.13964434 -0.012031208 -0.16368246 0.24113852 -0.2968633 0.26824877 -0.035480566 -0.23210919
0.15709439 0.088572495 0.070969194 -0.14531696 0.25340998 -0.029101387 0.012134105 -0.11669196
0.1658695 -0.1797395 -0.028510958 -0.15686394 -0.168258 0.107331835 -0.086304896 0.11885052
-0.020501172 0.036730353 0.019546 -0.07575797 0.043780975 -0.11287653 -0.13793959 0.14783329
0.11928162 -0.11621165 0.043615162 -0.046836596 0.0034633134 0.027113209 -0.13768968 0.034630023
0.081234336 0.065799356 -0.089373074 0.15319148 -0.08615451 0.048149068 -0.13348684 0.014305296
-0.1861937 0.15536697 0.07876887 -0.08208434 0.15289176 0.07063888 0.12973559 0.18750872
-0.017388606 0.09105342 -0.052601017 0.23737207 -0.13153417 0.16078308 -0.17662558 -0.20282482
0.000523886 0.034082066 -0.031411484 0.112987414 0.267098 -0.052238658 -0.102589756 -0.1348502
0.03382596 0.16860162 0.15709332 0.24111088 0.040791214 -0.13039292 0.005093275 0.035451625
0.035618257 0.06953484 -0.18389156 0.034177203 -0.036670618 -0.12524714 -0.1539617 0.003478061
-0.0027836566 -0.070031054 -0.23159 -0.16385558 0.026835034 0.07771006 -0.12263457 0.09361483
0.17433803 0.051551566 -0.03539111 0.024019025 0.06883068 0.0020747178 -0.0030766972 0.029172216
0.12429012 0.17098536 -0.08597791 0.14907926 -0.029052295 -0.070659116 -0.015680322 0.16063154
-0.29389516 0.29187906 -0.093651906 -0.27531072 0.12672262 -0.04848463 -0.19310334 -0.12687814
-0.2027835 0.033440147 0.1991818 -0.2569207 0.061532862 0.08390034 -0.08398083 -0.1255055
-0.03105649 -0.16509967 -0.17836744 -0.1020408 0.094660334 -0.19325565 0.12675081 -0.23950812
-0.1555695 -0.18893832 -0.3164195 0.15264486 -0.21919164 0.19435072 -0.06423606 0.11086362
00000000: e037 bdbd 3a40 90bd 8dd4 3e3e 61a9 11be
00000010: aa34 13be 8406 9f3d d3d7 3fbd 3f35 703d
00000020: f121 13bc 1d1b a5bd e3e3 883d 870d 00be
00000030: e14f d73c 994a 893d 63bb 6b3d 9b03 e2bd
00000040: cf13 be3d 5456 ab3c 6af3 bc3d 1c7e 493d
00000050: 4b5e 00be 8e09 ac3d 75b0 2c3c c365 1ebe
00000060: fd6c 8bbc f8aa 3cbd 92cb c9bc c503 1abe
00000070: df27 f6bd 7f83 ea3d 6b68 54be 5a60 1e3e
00000080: 139f abbd fd1d 27be 7388 293e dc6d 80be
00000090: 5963 c43d be10 c4bd 6ca2 f4bd 0cd9 ab3d
000000a0: 5041 bf3b e81a 8abd 10f4 013e 1a4d 97bc
000000b0: a3b5 0ebe 6657 1c3e 8538 37be b46b 483e
000000c0: a7ad 333e 6adf 3d3e a4cb 533d 39f5 ffbd
000000d0: 6f8e 57bb 3648 573e 0499 9ebe 6858 bd3d
000000e0: 9ee8 ddbd fef2 0a3d 1d51 bd3d 5e4c 92be
000000f0: aae8 e7bc 9170 3a3e 2708 25be 9d1c 12be
00000100: 76bf 983d a956 f0bc a359 fdbd 8d7d eebd
00000110: 4301 89bc b5a0 153e e829 0d3e 9176 963c
00000120: 103f 43bd 8a52 db3d 7303 ae3d 4a5c 9d3d
00000130: 142e 3ebd 133d 0bbe 73a9 153d 88ab 19bd
00000140: f7b8 4a3d 86a1 a2be df79 553d b8c7 5ebe
00000150: f8d3 6b3e 6276 5c3c 85f2 31be f77a 7e3d
00000160: 7f54 903e 78f7 c63b bbcf a5bd 11fd 1abe
00000170: b4c5 a6bd 91da 97bd 4467 9a3d a0a2 1c3e
00000180: a7b0 763d 4924 4ebe 609b 0bbe 68c6 aa3e
00000190: c12e a2bd b2a6 293e 4416 043d a79d 603d
000001a0: 9ab4 4d3e b174 c9bd 1a1d 24be 91ed 733e
000001b0: b5af 3c3e a6c0 d43d 48c9 f13d 17e2 c0be
000001c0: edfe 0e3e 8b1e 45bc 609c 27be 04ed 763e
000001d0: 77fe 97be e757 893e 1254 11bd 08ae 6dbe
000001e0: 5add 203e 7f65 b53d 4c58 913d f8cd 14be
000001f0: f4be 813e 0866 eebc 20ce 463c 32fc eebd
00000200: b2d9 293e a20d 38be d08f e9bc f1a0 20be
00000210: d34b 2cbe cbd0 db3d 9fc0 b0bd e767 f33d
00000220: 13f2 a7bc 9172 163d ef1e a03c ff26 9bbd
00000230: ae53 333d cf2b e7bd 0940 0dbe 9c61 173e
00000240: ec49 f43d 6000 eebd d0a5 323d bbd7 3fbd
00000250: c2f8 623b 851c de3c 86fe 0cbe 36d8 0d3d
00000260: 305e a63d d0c1 863d 3b09 b7bd 3ade 1c3e
00000270: c771 b0bd f537 453d c6b0 08be c360 6a3c
00000280: 90a9 3ebe 8518 1f3e 9351 a13d d61b a8bd
00000290: a88f 1c3e 1eab 903d 68d9 043e 4902 403e
000002a0: 8d72 8ebc 377a ba3d 2a74 57bd aa11 733e
000002b0: e5b0 06be 52a4 243e 56dd 34be 4fb1 4fbe
000002c0: 6555 093a a399 0b3d 54a9 00bd f265 e73d
000002d0: 12c1 883e 34f8 55bd 941a d2bd 2c16 0abe
000002e0: 178d 0a3d e7a5 2c3e 12dd 203e c5e5 763e
000002f0: b014 273d b985 05be 7de5 a63b b935 113d
00000300: 73e4 113d 4868 8e3d 124e 3cbe 65fd 0b3d
00000310: ee33 16bd c940 00be 23a8 1dbe 2ef0 633b
00000320: 026e 36bb 716c 8fbd ee25 6dbe c2c9 27be
00000330: 25d5 db3c 7426 9f3d d527 fbbd 22b9 bf3d
00000340: ab85 323e bc27 533d 45f6 10bd 8cc3 c43c
00000350: 19f7 8c3d fdf7 073b 6aa2 49bb 92fa ee3c
00000360: d28b fe3d c916 2f3e 3015 b0bd 3ca8 183e
00000370: 14ff edbc bab5 90bd 0574 80bc 987c 243e
00000380: 6d79 96be 2c71 953e 92cc bfbd 87f5 8cbe
00000390: 93c3 013e d297 46bd e2bc 45be 58ec 01be
000003a0: 7aa6 4fbe 89f8 083d 50f6 4b3e 1c8b 83be
000003b0: e209 7c3d f1d3 ab3d 24fe abbd 8484 00be
000003c0: 2e6a febc e30f 29be f4a5 36be c4fa d0bd
000003d0: 47dd c13d cfe4 45be f7ca 013e 9e41 75be
000003e0: 9c4d 1fbe 0c79 41be bd01 a2be ef4e 1c3e
000003f0: c673 60be e003 473e 328e 83bd 770c e33d

blocks.0.msa.proj.bias f4 [16]
0.07050013 -0.07268314 -0.13985267 -0.037067667 0.14775896 -0.24664864 0.12356933 -0.2578618
0.20645154 0.2988901 -0.15810189 -0.090228155 0.14364263 -0.14863552 0.12335364 0.053524986
00000000: 5f62 903d e6da 94bd 8a35 0fbe 44d4 17bd
00000010: 204e 173e 7691 7cbe eb11 fd3d 7606 84be
00000020: 0868 533e 2008 993e 76e5 21be 8ac9 b8bd
00000030: 0e17 133e e933 18be d5a0 fc3d 043d 5b3d

blocks.0.ffwd.net.0.weight f4 [64, 16]
-0.30685267 0.16294433 -0.32255238 0.122057654 0.028058631 -0.1030672 -0.124127224 0.012997759
0.14228758 0.38616678 0.17288673 0.095201984 -0.2186356 0.08580277 0.076147474 0.05326349
-0.4515686 0.26845616 -0.09125355 0.26219642 -0.052798416 0.25330555 -0.22391427 0.3539091
-0.35249034 0.19222155 -0.018507956 -0.16283987 0.057220902 -0.26989263 -0.20317852 0.20604499
-0.089567654 -0.29998282 -0.16374858 0.21832924 -0.083011 -0.14413044 0.086688824 -0.10370152
-0.4523268 -0.35855007 0.23846684 0.17115048 -0.12857758 0.27250093 0.30023342 0.1576399
-0.3716767 0.11309187 0.49392298 -0.25279835 0.24306594 -0.12968855 -0.029214289 0.23548086
-0.070136614 -0.010766054 0.011703524 0.018838294 0.2842915 0.0613265 -0.15017259 0.08156983
-0.025101325 0.017826822 -0.09934535 0.2838211 -0.027207881 0.2054028 0.029618295 -0.24301617
0.20523216 -0.28508824 -0.16268004 -0.05427598 0.07255563 0.06475803 0.39706537 0.102621205
-0.124973334 0.11533698 -0.065930374 0.119840704 0.16579103 0.04779741 -0.27204683 0.21356252
0.22177212 0.14310515 -0.23374279 -0.26971403 0.008536386 -0.066154875 0.3148393 -0.054608047
0.14800481 0.18231425 0.32476383 0.3690254 -0.05286594 0.24670677 0.11687512 0.37587154
0.28953147 -0.18002467 0.012354528 -0.1262593 0.062154587 -0.13996945 -0.20195904 -0.27573976
-0.23610653 0.49742213 0.30262965 0.065958805 -0.096177146 0.15025418 0.061522797 0.15642603
0.0505703 -0.009960184 0.12867327 -0.26629362 -0.20489189 -0.026448265 0.0876664 -0.21346927
-0.15357776 -0.14220987 0.20395596 0.03333967 -0.23884326 -0.21404369 0.4180802 -0.014673313
0.21545936 0.14805932 -0.4791468 -0.043940224 0.1706251 0.090519026 -0.10456473 0.001738512
-0.22879447 0.0021675972 -0.29466766 0.091359794 0.23580036 0.15236722 -0.08320113 0.024216147
0.10822136 0.043093648 -0.13426955 -0.10185078 0.38057798 0.38855916 -0.23843181 0.15840845
0.24468851 -0.31937963 -0.048190467 -0.2380151 -0.27024275 0.18304092 0.03307848 -0.06761285
0.22876811 0.13721846 -0.4194808 -0.22426458 -0.09535236 0.13743961 0.033170056 0.3631671
-0.1373385 -0.16738752 0.016238082 0.10781413 -0.17698812 0.02142235 0.034332663 0.025868041
-0.030076502 0.33109105 0.13872771 0.17874695 -0.27047074 -0.106973454 -0.20028771 -0.19070996
-0.027982939 0.4623279 0.14024822 -0.4261191 -0.08575283 0.17831744 -0.16081901 -0.1296028
-0.33346105 0.21502444 -0.06874257 0.016547164 0.42829984 0.080349214 -0.08612688 -0.19560103
-0.12826443 0.13139124 0.052069146 -0.010387879 0.078453 -0.2870834 -0.25892192 0.12948124
-0.009378166 -0.054758325 -0.28601244 0.34333766 0.07941102 0.095786855 -0.010017746 0.25334364
0.35682318 0.0076088593 0.124392115 0.2977124 -0.2631041 0.34290984 0.1509172 0.045280963
-0.4764381 -0.08085525 -0.016221011 -0.38071463 -0.30787107 0.18269274 -0.18569927 0.14049399
-0.19905873 0.16308519 -0.2013199 0.2061026 -0.21022528 0.22913441 0.15958303 -0.0016930435
-0.3292734 0.052249853 0.005146374 -0.016354462 -0.30437818 -0.1427513 0.025669847 0.26214424
00000000: cb1b 9dbe e1da 263e 9625 a5be 5df9 f93d
00000010: 37db e53c e514 d3bd 6a36 febd 8df4 543c
00000020: d6b3 113e a7b7 c53e 3809 313e 42f9 c23d
00000030: 03e2 5fbe 5db9 af3d 35f3 9b3d d12a 5a3d
00000040: 0034 e7be 1673 893e 24e3 babd 9c3e 863e
00000050: 2743 58bd 44b1 813e c849 65be 9333 b53e
00000060: 9d79 b4be bad5 443e ff9d 97bc 7fbf 26be
00000070: 7760 6a3d 5e2f 8abe 080e 50be 75fd 523e
00000080: 3f6f b7bd 5997 99be b5ad 27be b391 5f3e
00000090: ac01 aabd ee96 13be e989 b13d 7661 d4bd
000000a0: 6197 e7be e093 b7be a730 743e 1242 2f3e
000000b0: d7a9 03be 3e85 8b3e 32b8 993e 5b6c 213e
000000c0: 694c bebe b69c e73d 79e3 fc3e c96e 81be
000000d0: 47e6 783e 13cd 04be ce52 efbc e521 713e
000000e0: c9a3 8fbd 1a64 30bc 23c0 3f3c c452 9a3c
000000f0: a88e 913e 7f31 7b3d d8c6 19be 150e a73d
00000100: 4ba1 cdbc 8e09 923c 9375 cbbd 0051 913e
00000110: 10e3 debc 1d55 523e 11a2 f23c 3bd9 78be
00000120: 6128 523e 16f7 91be 9995 26be 7d50 5ebd
00000130: 0c98 943d dc9f 843d 274c cb3e 112b d23d
00000140: 05f2 ffbd cb35 ec3d 8106 87bd 0b6f f53d
00000150: 20c5 293e 38c7 433d b949 8bbe 22b0 5a3e
00000160: 3b18 633e 288a 123e 455a 6fbe f517 8abe
00000170: 33dc 0b3c 357c 87bd 9e32 a13e b0ac 5fbd
00000180: 938e 173e 96b0 3a3e 7247 a63e e6f0 bc3e
00000190: f589 58bd b3a0 7c3e 395c ef3d 3c72 c03e
000001a0: 783d 943e 6358 38be a56a 4a3c 1e4a 01be
000001b0: cf95 7e3d 2754 0fbe 5ace 4ebe c32d 8dbe
000001c0: e9c5 71be 1dae fe3e 46f2 9a3e 6915 873d
000001d0: 86f8 c4bd 3bdc 193e 54ff 7b3d 252e 203e
000001e0: ce22 4f3d 0a30 23bc edc2 033e a357 88be
000001f0: 2ecf 51be 08aa d8bc 718a b33d b097 5abe
00000200: 7d43 1dbe 779f 11be d5d9 503e 2e8f 083d
00000210: 5493 74be 452e 5bbe 9c0e d63e 5668 70bc
00000220: 61a1 5c3e dd9c 173e bb52 f5be aafa 33bd
00000230: 59b8 2e3e 0a62 b93d 0826 d6bd c8de e33a
00000240: 1949 6abe 3f0e 0e3b aede 96be d81a bb3d
00000250: a675 713e 2706 1c3e 5b65 aabd f160 c63c
00000260: 29a3 dd3d f782 303d f57d 09be 2497 d0bd
00000270: 1edb c23e 3af1 c63e 7827 74be d335 223e
00000280: a08f 7a3e ba85 a3be 5e63 45bd 3bba 73be
00000290: 425d 8abe 146f 3b3e 4d7d 073d 9b78 8abd
000002a0: 3042 6a3e ff82 0c3e 30c6 d6be 9da5 65be
000002b0: 1948 c3bd f8bc 0c3e 53dd 073d 0af1 b93e
000002c0: 77a2 0cbe a267 2bbe ba05 853c a8cd dc3d
000002d0: 603c 35be ed7d af3c 68a0 0c3d 37e9 d33c
000002e0: ff62 f6bc c484 a93e a30e 0e3e 7109 373e
000002f0: 247b 8abe e614 dbbd 3918 4dbe 7949 43be
00000300: 7a3c e5bc 3eb6 ec3e 3b9d 0f3e 482c dabe
00000310: 2e9f afbd d998 363e bdad 24be 99b6 04be
00000320: 68bb aabe 5e2f 5c3e e8c8 8cbd eb8d 873c
00000330: 1e4a db3e 218e a43d 4a63 b0bd a34b 48be
00000340: c057 03be 6d8b 063e 7546 553d ec31 2abc
00000350: f7ab a03d 98fc 92be 6a91 84be bb96 043e
00000360: e1a6 19bc 444a 60bd 3970 92be f4c9 af3e
00000370: 3fa2 a23d e62b c43d 7921 24bc 42b6 813e
00000380: 87b1 b63e bd53 f93b 4bc1 fe3d c26d 983e
00000390: 95b5 86be e191 af3e 0a8a 1a3e 8878 393d
000003a0: b2ef f3be 7097 a5bd ede1 84bc 07ed c2be
000003b0: 47a1 9dbe ce13 3b3e f327 3ebe a8dd 0f3e
000003c0: 0dd6 4bbe ceff 263e ce26 4ebe 8f0c 533e
000003d0: 4c45 57be 36a2 6a3e bc69 233e 1de9 ddba
000003e0: 8696 a8be f103 563d eaa2 a83b cbf9 85bc
000003f0: 75d7 9bbe 662d 12be 9249 d23c c537 863e

blocks.0.ffwd.net.0.bias f4 [64]
0.11744658 -0.06281685 0.21542233 -0.22764075 0.05956388 0.23206733 0.064426675 0.09225557
0.26780087 0.24597268 -0.1130357 0.25354406 0.04218943 0.4028751 0.09782785 -0.001081352
0.08503513 0.10439968 -0.07701634 0.29291284 0.26266718 -0.065875195 0.110681996 -0.01557123
-0.06909943 -0.12580588 0.2821893 -0.23483992 -0.12975621 0.1299455 0.10633662 0.12128995
-0.085374616 0.15295829 0.08966026 -0.21315031 0.22150213 0.11272729 0.1515313 0.047043897
0.08923858 -0.24938205 0.18956321 -0.04079549 -0.081301354 0.14023611 0.011060082 0.2308637
0.23734362 0.25569546 0.18601671 0.12247533 0.010138836 -0.007992862 -0.10107227 0.010512704
0.13289031 0.24458636 -0.1628416 0.1518184 0.22749686 0.2136457 0.025661161 -0.04568004
00000000: d587 f03d 1fa6 80bd ac97 5c3e a81a 69be
00000010: 41f9 733d 0fa3 6d3e 22f2 833d 7df0 bc3d
00000020: 321d 893e 43e0 7b3e 437f e7bd 87d0 813e
00000030: d3ce 2c3d a545 ce3e f859 c83d 27bc 8dba
00000040: e626 ae3d 80cf d53d beba 9dbd acf8 953e
00000050: 507c 863e 93e9 86bd 3ead e23d 791e 7fbc
00000060: 0184 8dbd 42d3 00be 1e7b 903e e079 70be
00000070: d0de 04be 6f10 053e 04c7 d93d de66 f83d
00000080: e3d8 aebd 19a1 1c3e cc9f b73d 1344 5abe
00000090: 74d1 623e 91dd e63d 052b 1b3e 1ab1 403d
000000a0: b7c2 b63d 025e 7fbe dc1c 423e 2c19 27bd
000000b0: 5381 a6bd 0e9a 0f3e 5935 353c 8967 6c3e
000000c0: 350a 733e 84ea 823e 2a7b 3e3e 59d4 fa3d
000000d0: 5c1d 263c 7ef4 02bc fafe cebd 7a3d 2c3c
000000e0: 6614 083e d974 7a3e f3bf 26be 4876 1b3e
000000f0: f0f4 683e f0c5 5a3e 5b37 d23c fe1a 3bbd
